code/CADLAE (Pipeline Code)/cadlae/CADLAE_model.pth (torch, 104207 bytes, 10 tensors)

weight_ih_l0 f4 [100, 52]
0	0xbc230344	-0.009949509
1	0x3ebf750e	0.37393993
2	0xbe599ee4	-0.21252018
3	0x3eb54f4d	0.35412064
4	0x3ec158f7	0.37763187
5	0x3e19f356	0.15034232
6	0xbeedbc6e	-0.46432823
7	0x3f0eff2a	0.558581
8	0xbd06d9c0	-0.032922506
9	0xbf3bcf38	-0.73363066
10	0x3eb9b398	0.36269832
11	0xbe74a70e	-0.23891851
12	0x3e2a8803	0.16653447
13	0xbe6c9472	-0.23103502
14	0xbe5b1966	-0.21396407
15	0xbe8978ca	-0.26849967
16	0xbbbae6d0	-0.0057037845
17	0x3eab9cd8	0.335181
18	0xbf14e2f3	-0.581588
19	0xbef5a7a7	-0.4797947
20	0x3dce3dd3	0.10070386
21	0xbe7c9886	-0.24667558
22	0xbdeaba2a	-0.11461289
23	0x3db5e24a	0.08881052
24	0x3f8f4017	1.1191434
25	0xbf48b341	-0.7839852
26	0x3ef5ec0c	0.48031652
27	0xbf5fa490	-0.8736048
28	0x3d760f6f	0.060073312
29	0x3e7555de	0.23958537
30	0xbe732e07	-0.23748027
31	0x3ea33c1d	0.318818
32	0xbf0957c4	-0.53649545
33	0x3e0f306e	0.13983318
34	0x3e86f938	0.26362014
35	0x3e9533c9	0.2914107
36	0xbe8e171c	-0.27752006
37	0x3f749294	0.9553616
38	0xbe53b594	-0.20674735
39	0xbf7a04f3	-0.976638
40	0x3b97de49	0.0046346528
41	0x3f3d477a	0.7393719
42	0xbe59bbd7	-0.21263061
43	0xbf2a18b9	-0.66443974
44	0xbf1ffa44	-0.6249125
45	0x3f68e534	0.90974736
46	0xbf3ed150	-0.74538136
47	0xbf09de31	-0.5385466
48	0xbe57fd57	-0.21092735
49	0x3d76b0ca	0.060227193
50	0xbd0e13f6	-0.034687005
51	0xbda9e89b	-0.08296319
52	0x3e1839f1	0.14865853
53	0x3bd7a1d2	0.00658057
54	0xbdec5785	-0.115401305
55	0x3e2ddc91	0.1697867
56	0x3ccb148f	0.024790077
57	0x3bcbda7f	0.006221115
58	0x3f0feb5d	0.5621851
59	0xbd9f2d87	-0.077723555
60	0x3c7fadcf	0.015605404
61	0xbea4fcb5	-0.3222405
62	0x3e9a727a	0.30165464
63	0x3c955551	0.018229159
64	0x3f14d074	0.58130574
65	0xbd4428a4	-0.04789032
66	0x3e0556c1	0.13021375
67	0xbf89cf68	-1.076642
68	0x3d39ca55	0.045358974
69	0xbf8ff427	-1.1246384
70	0xbcceba80	-0.025235415
71	0xbe818a76	-0.2530095
72	0x3cbb6ff0	0.022880524
73	0xbe41518b	-0.18878762
74	0x3cee56e0	0.02909416
75	0x3d21a603	0.03946496
76	0x3c928c21	0.017889084
77	0xbe02355b	-0.12715666
78	0xbdb2c395	-0.087287106
79	0x3bdefc32	0.0068049664
80	0x3d7a95ae	0.061177902
81	0x3e65d456	0.22444281
82	0x39dd132e	0.00042166695
83	0xbe419e7b	-0.18908112
84	0xbd45027d	-0.048098076
85	0x3e27e5a2	0.16396192
86	0xbdf35c8b	-0.118828855
87	0xbcb5c861	-0.022190275
88	0x3dd42d47	0.103601985
89	0xbdbee44a	-0.093208864
90	0x3d1f2511	0.03885371
91	0x3d37e003	0.04489137
92	0xbd244627	-0.040105965
93	0x3e1adfcf	0.15124439
94	0xbd48f721	-0.049063805
95	0xbe0816db	-0.13289969
96	0xbd0c9c5a	-0.034328796
97	0x3e0207a9	0.12698235
98	0x3e821205	0.25404373
99	0x3cd21f55	0.025649706
100	0xbd950ce9	-0.07277853
101	0x3cbf117d	0.023323769
102	0x3d68cf22	0.056838162
103	0x3d48e61b	0.04904757
104	0xbd2e2c99	-0.042523
105	0xbd3c6ab6	-0.046000205
106	0x3a2fffc6	0.00067138334
107	0x3be900f4	0.0071107093
108	0xbbcc335b	-0.006231708
109	0x3d71199a	0.058862306
110	0x3e1da626	0.15395412
111	0xbc47d789	-0.012197384
112	0x3dbc7a4f	0.09203016
113	0x3dddbcce	0.10827027
114	0xbdb320a8	-0.08746463
115	0x3dac58ea	0.084153965
116	0xbdd05254	-0.10171953
117	0xbc9812b9	-0.018563615
118	0xbd66becb	-0.056334298
119	0xbdfec1e8	-0.124393284
120	0xbeb00004	-0.34375012
121	0x3e6c36df	0.23067807
122	0xbcbd160c	-0.023081802
123	0xbce5871e	-0.02801853
124	0xbc865acb	-0.016400715
125	0xbda31f04	-0.079649
126	0xbc1673f5	-0.00918292
127	0x3cb39444	0.021921284
128	0x3d5f8a7d	0.054575432
129	0xbcb7a570	-0.022417754
130	0xbd82a37e	-0.0637884
131	0x3cbcf4ec	0.023066007
132	0xbda9d030	-0.08291662
133	0xbd6cd9ca	-0.057824887
134	0x3cb13dc0	0.02163589
135	0x3defe2ee	0.11713205
136	0x3cf8fedd	0.030394966
137	0xbcf26623	-0.029589718
138	0xbda6e1a8	-0.08148509
139	0xbda084b2	-0.078378096
140	0xbda3ee92	-0.08004488
141	0xbe1d475c	-0.15359253
142	0xbd50314d	-0.050828267
143	0xbdb6c068	-0.08923417
144	0xbd573b11	-0.052546564
145	0xbd390819	-0.04517374
146	0x3d2ec9cb	0.042672914
147	0x3da0e4d5	0.07856146
148	0xbc83d5ed	-0.016093219
149	0x3ce95afe	0.028485771
150	0xbe200823	-0.15628104
151	0xbd7a6c07	-0.06113818
152	0x3bfd2178	0.007724937
153	0xbe30894e	-0.17239878
154	0xbaa46124	-0.0012541157
155	0xbe9304e3	-0.28714666
156	0xbdc1c67a	-0.094616845
157	0xbc2769ca	-0.010218093
158	0x3e109701	0.14120103
159	0x3d8d3de9	0.06896574
160	0xbd9b457b	-0.07581612
161	0x3a0192cd	0.00049428345
162	0xbe5994ec	-0.21248215
163	0x3d442e14	0.047895506
164	0xbcfb096a	-0.030644137
165	0xbe23d425	-0.15998895
166	0xbdd0c594	-0.10193935
167	0xbda3ec35	-0.08004037
168	0xbeb2eb3a	-0.3494509
169	0x3dd3b164	0.10336569
170	0xbd825915	-0.06364647
171	0x3e410415	0.18849213
172	0x3bae3ea0	0.005317524
173	0x3d79a891	0.060951773
174	0xbda0181a	-0.07817097
175	0xbe03f527	-0.12886487
176	0xbddd699c	-0.10811159
177	0xbc4362ae	-0.011925383
178	0xbdad5717	-0.08463877
179	0xbd1fb0fe	-0.038987152
180	0x3c9212ba	0.017831195
181	0x3c001def	0.007819637
182	0xbda2a433	-0.07941475
183	0x3dc6fc71	0.09716118
184	0xbc403586	-0.011731511
185	0x3db02889	0.086014815
186	0xbd546fe7	-0.05186453
187	0x3d2cea7b	0.042215806
188	0xbc726901	-0.014795543
189	0x3d85d9df	0.06535696
190	0xbdb64536	-0.0889992
191	0x3d7a5b50	0.06112224
192	0xbc7eec7e	-0.015559314
193	0xbe17b3e6	-0.1481472
194	0x3cd05ab1	0.02543387
195	0xbc931c90	-0.017957956
196	0xbcb32a2e	-0.021870699
197	0xbd138db9	-0.03602383
198	0x3de53bfe	0.11193083
199	0x3ce87870	0.028377742
200	0x3ccb0354	0.02478186
201	0x3acc2baf	0.0015576984
202	0x3e203dbc	0.1564855
203	0x3e022ea2	0.12713102
204	0x3dcda89f	0.100419275
205	0x3ca6d7af	0.020366518
206	0x3d85714d	0.06515751
207	0xbd63966a	-0.055563368
208	0x3c47c7ec	0.012193661
209	0x3db0e154	0.08636728
210	0xbe22e151	-0.15906264
211	0x3ed448e5	0.41461864
212	0xbcab5f11	-0.020919355
213	0x3e9a5cf8	0.30149055
214	0x3f2e2b13	0.68034476
215	0x3dc0d5c1	0.0941577
216	0xbd4ca345	-0.049960393
217	0xbf8b6ee0	-1.0893211
218	0xbedf93e2	-0.43667513
219	0xbe060953	-0.13089494
220	0x3f8710e4	1.055203
221	0x3e4a2ab0	0.19742846
222	0xbe3d0bb9	-0.18461503
223	0xbf8828fb	-1.0637506
224	0x3e04f3b5	0.12983592
225	0x3f057291	0.5212794
226	0xbfe43c86	-1.783097
227	0xbf900232	-1.125067
228	0xbe75ea5c	-0.24015182
229	0x3e5c6fbb	0.21526997
230	0xbe817380	-0.25283432
231	0xbda968b4	-0.08271924
232	0xbe4aecae	-0.19816849
233	0x3ec31e86	0.38109225
234	0xbf2a1527	-0.66438526
235	0x3e965af9	0.29366282
236	0x3ed7ea84	0.4217111
237	0xbe7e28b6	-0.24820217
238	0xbea05e98	-0.3132217
239	0xbb520cec	-0.003205116
240	0xbf21ae4a	-0.6315657
241	0xbee15c31	-0.4401565
242	0xbeb81458	-0.3595302
243	0xbe3ff8ab	-0.18747203
244	0x3e37960c	0.17928332
245	0xbe18ec2c	-0.14933842
246	0xbe6b23cd	-0.22962876
247	0x3e8e387e	0.27777475
248	0x3da98e71	0.08279122
249	0xbab44d4b	-0.0013755945
250	0xbeb8e936	-0.36115426
251	0xbf15b8f5	-0.5848535
252	0x3dd0fe2a	0.10204728
253	0xbed7e446	-0.42166346
254	0x3f60369b	0.8758332
255	0x3c4812df	0.0122115305

weight_hh_l0 f4 [100, 25]
0	0xbff2e1ed	-1.8975197
1	0xc07a8001	-3.9140627
2	0x3f1c6fe2	0.6110822
3	0xc097effe	-4.748046
4	0xc059e275	-3.4044468
5	0x4042fda4	3.046731
6	0xc00e37de	-2.2221599
7	0xc04439d5	-3.0660298
8	0x408f4c8d	4.4780946
9	0xbea14cc5	-0.31503883
10	0xbfadea7d	-1.3587185
11	0x3f72b5e3	0.9480879
12	0xc02381d3	-2.5547988
13	0x3f360d0b	0.7111365
14	0x408796bb	4.2371497
15	0x40f9c65d	7.8054643
16	0x4074f4b3	3.8274353
17	0xc0d93156	-6.7872725
18	0x404b8708	3.1801167
19	0xc044c628	-3.0745945
20	0x40167975	2.3511631
21	0x3faa1ad3	1.3289436
22	0x40b7a8a8	5.739338
23	0xc0819dcd	-4.050513
24	0x4026e293	2.607579
25	0xc00cc7d5	-2.1996968
26	0xbf95e3f9	-1.1710197
27	0xbf86f642	-1.0543902
28	0x3ed788b1	0.42096475
29	0x3ffcd72f	1.9753169
30	0x3e3645a5	0.17800005
31	0x3fdc4306	1.7207954
32	0x3f83f7d0	1.0310001
33	0x3fe149e4	1.7600675
34	0xbef5c88b	-0.48004565
35	0xbd9b9b95	-0.07598034
36	0xc01ffa54	-2.4996538
37	0x3fafda3e	1.3738477
38	0xbfa08e8c	-1.2543502
39	0x3e98d848	0.2985251
40	0xbf86e854	-1.0539651
41	0x3f94a66a	1.1613286
42	0xbe8048e1	-0.25055602
43	0xbfd4cecf	-1.6625613
44	0xbf1a5852	-0.60291016
45	0xbfb864a0	-1.4405708
46	0x3f0d2949	0.5514112
47	0x3ea514f4	0.32242548
48	0x3fa89bfa	1.31726
49	0xbf4dc80b	-0.80383366
50	0xbec1e175	-0.37867323
51	0x3e291b00	0.16514206
52	0x3efbba28	0.49165463
53	0xbf14f22f	-0.5818204
54	0xbeb6d698	-0.35710597
55	0x3e44d0aa	0.19220224
56	0xbf275a4d	-0.65372163
57	0xbe829a1c	-0.255082
58	0xbe8deb0d	-0.27718392
59	0x3f408354	0.7520039
60	0xbe4c7d2b	-0.19969623
61	0xbb3eca5e	-0.002911232
62	0xbe8b3035	-0.27185217
63	0x3e46d4b9	0.19417085
64	0x3d9d3e48	0.07677895
65	0x3e3144c2	0.17311385
66	0xbf115375	-0.5676797
67	0xbf4eaed1	-0.807355
68	0x3e1582a1	0.14600612
69	0xbf2a7424	-0.66583467
70	0x3ddcdd23	0.10784366
71	0xbf289339	-0.65849644
72	0xbe1745a9	-0.14772667
73	0xbe3b1724	-0.18270546
74	0x3eaa7be0	0.33297634
75	0x3d85718b	0.06515797
76	0x3dc7bdd6	0.09753005
77	0xbf83d9df	-1.0300864
78	0x4054fb63	3.3278434
79	0xbf4d503e	-0.80200565
80	0xbdd3e046	-0.10345511
81	0xbf17151f	-0.59016603
82	0xbd8661a2	-0.06561591
83	0x3fa344a1	1.2755319
84	0x3db314c7	0.08744197
85	0xbf3df4c4	-0.7420161
86	0x3d231c0b	0.039821666
87	0x3e8ce886	0.2752115
88	0x3e2a3b65	0.1662422
89	0xbec34abe	-0.3814296
90	0x3f1ee0e3	0.620619
91	0xbf0ddf7b	-0.5541913
92	0xbf2d08d5	-0.675916
93	0x3f5813a4	0.8440497
94	0xbf5f3235	-0.87185985
95	0xbde7dd07	-0.113214545
96	0x3e389bed	0.18028231
97	0xbdab7414	-0.083717495
98	0x3ea013d0	0.31265116
99	0x3ea5549c	0.32291114
100	0xbf52635f	-0.8218288
101	0x3f430a33	0.7618744
102	0xbea3d935	-0.32001653
103	0x3f67eccc	0.905957
104	0xbcfb33d1	-0.030664356
105	0xbde3dc81	-0.11126042
106	0xbf229e87	-0.63523144
107	0x407377d9	3.80419
108	0x3f00b281	0.50272375
109	0x3e2b6df0	0.16741157
110	0x3ffb2436	1.9620426
111	0x4011104a	2.2666192
112	0x3f9285b6	1.1447055
113	0x3e085141	0.13312246
114	0x3fc291c9	1.520074
115	0x3fd49eb4	1.6610932
116	0x3f960692	1.1720755
117	0x4012f6c3	2.2963111
118	0xbf85d19c	-1.0454593
119	0x3f92ffe0	1.1484337
120	0x3e3795f9	0.17928304
121	0xc01dd192	-2.4659162
122	0x3f6ad240	0.91727066
123	0xbfbbd14a	-1.4673245
124	0xbe778d86	-0.2417508
125	0x3fb853c4	1.4400563
126	0x3d57c0b4	0.05267401
127	0xbfb07ced	-1.3788124
128	0xbfcd93b1	-1.6060697
129	0x3f1d5da4	0.6147101
130	0xbf8414d7	-1.031886
131	0xbef7b9b3	-0.48383865
132	0x3e09c441	0.13453771
133	0x3f57e44b	0.8433272
134	0xbea481a0	-0.32130146
135	0x3f411357	0.75420135
136	0x3f30c813	0.6905529
137	0x3e96f91e	0.29486936
138	0x3f9b51bf	1.2134322
139	0xbdbe622b	-0.09296068
140	0x3f90df5e	1.1318166
141	0xbf80aacf	-1.0052127
142	0xbe3dd9f9	-0.18540181
143	0x3efc9372	0.49331242
144	0xbfd7a9a0	-1.684864
145	0xbf61983d	-0.8812292
146	0x3df668c0	0.12031698
147	0x3eeab9cc	0.45844877
148	0xbfb3f95a	-1.4060471
149	0xbfceb568	-1.6149111
150	0xbf6a6560	-0.91560936
151	0x3fd82636	1.6886661
152	0xc02ce2a7	-2.7013338
153	0xbf91c185	-1.1387182
154	0xbf2e8def	-0.68185323
155	0xbfb1b3b7	-1.388297
156	0xbf254fad	-0.645747
157	0xbf4e7d23	-0.80659693
158	0x3fa7cb10	1.3108845
159	0xbec2d0b5	-0.38049856
160	0x3e4579e7	0.19284783
161	0x406c7d96	3.6951652
162	0x400b8200	2.1798096
163	0xbf9446bb	-1.1584085
164	0x3faac32b	1.334081
165	0xbebf857a	-0.37406522
166	0xbf72a6b7	-0.94785637
167	0x3fae427d	1.3614041
168	0xbecc16c3	-0.39861116
169	0xbf8f6f8a	-1.1205914
170	0xbf2d05bd	-0.6758688
171	0x3f8a2d93	1.0795158
172	0x3f9cab3a	1.2239754
173	0xbf981545	-1.1881491
174	0xbfe3d827	-1.780034
175	0x3ff1c825	1.8889204
176	0xbd3583a0	-0.04431498
177	0xbf7db92a	-0.9911066
178	0xbef618f9	-0.48065928
179	0x3e47dfca	0.19518963
180	0x3d832223	0.064029954
181	0xbf7a7a69	-0.97843033
182	0xbfcdb076	-1.6069477
183	0x3ff21be5	1.8914763
184	0xbf2feb2c	-0.6871822
185	0xc014732d	-2.3195298
186	0xbf2fc725	-0.68663245
187	0xbfc77e4f	-1.5585421
188	0x403e0f75	2.9696934
189	0x40613916	3.5191092
190	0x40401887	3.001497
191	0xbf5ad2c2	-0.8547784
192	0x401d28ff	2.4556272
193	0xbe3ea37f	-0.18617056
194	0xc08bb0bd	-4.3653245
195	0xbff29a1d	-1.8953282
196	0xc067c0d8	-3.6211452
197	0x3f4b520d	0.79422075
198	0xbf80ca16	-1.0061672
199	0x4094debb	4.652189
200	0xbeb49840	-0.35272408
201	0xbe2e0bb3	-0.1699665
202	0xbef15ab9	-0.47139528
203	0xbe1a36f5	-0.15060027
204	0xbe88c79d	-0.26714793
205	0xbd8618d7	-0.065477066
206	0x3dc5ccd9	0.09658212
207	0x3ba2fe81	0.004974187
208	0xbf5623e5	-0.8364852
209	0x3ee823af	0.45339724
210	0x3f14f7b1	0.5819045
211	0xbe9c84a8	-0.3056996
212	0x3b8878c9	0.0041647893
213	0x3ebbff0f	0.36718032
214	0x3e863e2b	0.26219305
215	0xbf4cd2f6	-0.800094
216	0x3ec4c86e	0.38434166
217	0x3c907944	0.017635949
218	0xbeec3f57	-0.46142074
219	0xbde4064b	-0.11134013
220	0xbf8bf1d0	-1.093317
221	0xbee0c8ef	-0.439033
222	0xbe5330fb	-0.20624153
223	0xbea69889	-0.3253825
224	0xbe3c83c4	-0.1840964
225	0xbdf620ee	-0.120179996
226	0x3ffd57bd	1.9792401
227	0x3e3684c4	0.17824084
228	0x3ea12f14	0.3148123
229	0xc047373c	-3.1127462
230	0x400c20dc	2.1895056
231	0x3fb1da2c	1.3894706
232	0xbe4f2ea5	-0.20232637
233	0x3fdadf76	1.7099445
234	0xbf14dbc4	-0.58147836
235	0x400dfcdd	2.2185585
236	0xbec610c2	-0.3868466
237	0xbf1d9a98	-0.61564016
238	0x4004aa86	2.072908
239	0xbf06e40a	-0.5269171
240	0xbe3ae18e	-0.18250105
241	0x3f8ce30c	1.1006789
242	0xc01c98b0	-2.4468193
243	0x3fee8e57	1.8637189
244	0xbe28e776	-0.16494545
245	0xbf35162c	-0.70736957
246	0x3fcd21c3	1.6025928
247	0x40734bee	3.8015094
248	0xc008bea4	-2.1366358
249	0x3fc12d86	1.5092018
250	0x407af66a	3.92129
251	0xc01094f9	-2.2590926
252	0xc059f6d2	-3.4056897
253	0xbf3bfb7a	-0.734306
254	0xbfd4f5d4	-1.6637521
255	0xc0933e91	-4.6013875

bias_ih_l0 f4 [100]
0	0x3fc51c5a	1.5399277
1	0x3f4c4834	0.79797673
2	0x3dcb88e0	0.09938216
3	0xbc4fb23d	-0.012676773
4	0x3fdcea78	1.7259054
5	0x3cbbe18d	0.0229347
6	0x3f86aea0	1.0522041
7	0x3f83375f	1.0251273
8	0xbed9aac7	-0.42513105
9	0x3fc7a1c7	1.5596246
10	0x4002ceee	2.04388
11	0x3f27ce68	0.65549326
12	0x3eea6db7	0.4578683
13	0x3eb3f57f	0.35148236
14	0x3f0d8cb5	0.55292827
15	0x3fc93d46	1.5721824
16	0x3f0743b6	0.52837694
17	0x403db2df	2.9640424
18	0x3f915968	1.135541
19	0xbe6a3c4b	-0.22874562
20	0x3d09d222	0.033647664
21	0xbefbb33a	-0.49160177
22	0x401cb869	2.4487555
23	0x3fab2bf4	1.3372788
24	0x3ea24eda	0.31700784
25	0x3f22dd53	0.63618964
26	0x3ecc2b72	0.39876896
27	0xbda8cf92	-0.08242716
28	0xbf8a51de	-1.0806234
29	0x3f53576c	0.8255527
30	0xbf0f346b	-0.5593936
31	0x3f85f67c	1.0465846
32	0x3ee32214	0.44361937
33	0xbf1361e7	-0.5757126
34	0xbf00bd93	-0.5028927
35	0x3ec34b01	0.3814316
36	0x3e2a3ae9	0.16624035
37	0xbf9f2f81	-1.2436372
38	0x3f1b4278	0.606483
39	0x3f430d16	0.7619184
40	0xbf90ffa1	-1.1328012
41	0x3f58fbe2	0.8475934
42	0x3e5caabd	0.21549506
43	0xbf419a6c	-0.75626254
44	0x3ec12aa6	0.3772785
45	0xbef72014	-0.4826666
46	0x3f3fcc5d	0.7492121
47	0x3f0157bd	0.50524503
48	0xbf82f97a	-1.0232384
49	0xbf781cd2	-0.96918976
50	0xbcc7a8b7	-0.024372442
51	0x3d9bb249	0.076023646
52	0xbe8c67bb	-0.2742289
53	0x3e2d45bd	0.16921134
54	0x3da356b5	0.079755224
55	0x3d886e07	0.06661611
56	0x3c8bf4a7	0.017084433
57	0x3db27cb7	0.08715194
58	0x3e8c1582	0.2736016
59	0x3e0b26d2	0.13589028
60	0x3d8979c2	0.067126766
61	0xbd2cdfcb	-0.042205613
62	0x3d6ba59e	0.05753099
63	0x3d1046c8	0.035223752
64	0x3c03f4f3	0.008054006
65	0x3b14b736	0.002269221
66	0xbd95e66c	-0.0731934
67	0x3d31e281	0.0434289
68	0xbe001e15	-0.12511475
69	0x3db63833	0.08897438
70	0xbf37a2f1	-0.71733004
71	0xbd89c359	-0.06726713
72	0xbaf59a0e	-0.0018737928
73	0xbe17a8a7	-0.1481043
74	0xbcd9d53b	-0.026590934
75	0x4067c065	3.6211178
76	0x404b7ce7	3.1794984
77	0x3ee71208	0.45130944
78	0x40484919	3.1294615
79	0x402e8ffc	2.727538
80	0x3f8ac0ca	1.0840085
81	0x407fcacf	3.9967535
82	0x40804d27	4.009418
83	0x3f1f6e75	0.6227792
84	0x402f5376	2.739469
85	0x3fea6692	1.8312552
86	0x40283dfd	2.6287835
87	0x4011c97f	2.2779233
88	0x40344f4e	2.8173404
89	0x4022475b	2.5356052
90	0x3ff48a3b	1.9104685
91	0x40502683	3.2523506
92	0x40072d9a	2.1121583
93	0x40040012	2.0625043
94	0x3f06f471	0.5271674
95	0xbe3ec47a	-0.18629637
96	0x406a5bac	3.6618452
97	0x4003ef1a	2.0614686
98	0x3f906882	1.1281893
99	0x3fcf2f42	1.6186297

bias_hh_l0 f4 [100]
0	0x3fc1a3d7	1.5128125
1	0x3f4a3c95	0.7899869
2	0xbdf34e22	-0.11880137
3	0x3ebc0fdb	0.36730847
4	0x3fe19c12	1.7625754
5	0xbe5b16ee	-0.21395466
6	0x3f835bdd	1.026241
7	0x3f701f5a	0.9379784
8	0xbebd7698	-0.37004542
9	0x3faf4283	1.3692173
10	0x400d7f6e	2.2109027
11	0x3f0ee93f	0.55824655
12	0x3f232e98	0.6374297
13	0x3e230bad	0.15922423
14	0x3f092f4c	0.53587794
15	0x3fc0ef4f	1.5073031
16	0x3e73cf9d	0.23809667
17	0x40309a39	2.759413
18	0x3face0a8	1.350606
19	0xbe97aaf4	-0.29622614
20	0xbcffcb36	-0.031224828
21	0xbf0e0963	-0.55483073
22	0x4027cb4c	2.6217833
23	0x3fbb0182	1.4609835
24	0x3ea40452	0.32034546
25	0x3f4dd44d	0.8040207
26	0x3f0af5f3	0.5428154
27	0xbe2612b1	-0.16218068
28	0xbf6ed116	-0.9328779
29	0x3f829ffa	1.0205071
30	0xbeabc64d	-0.3354973
31	0x3f8d4ff4	1.1040025
32	0x3e225976	0.15854439
33	0xbe699c47	-0.22813521
34	0xbf255a61	-0.6459103
35	0x3eba0b2c	0.36336648
36	0x3eb73345	0.35781303
37	0xbf9546e9	-1.1662265
38	0x3f22139e	0.63311183
39	0x3f4d6c86	0.8024372
40	0xbf91523b	-1.135322
41	0x3f2e14ce	0.68000495
42	0x3e34303e	0.17596528
43	0xbed05ea4	-0.40697205
44	0x3f06891d	0.5255297
45	0xbf0c1c3c	-0.5473058
46	0x3f7dbf0d	0.99119645
47	0x3e3a6dc9	0.18205942
48	0xbf7e8dfe	-0.9943541
49	0xbf583a02	-0.8446351
50	0x3df183bf	0.11792707
51	0x3d4ed05c	0.050491676
52	0xbee7b6cd	-0.45256653
53	0xbd99a260	-0.07501674
54	0x3ed08852	0.40729004
55	0x3e355c20	0.17710924
56	0xbdc8501e	-0.09780906
57	0xbdbda3a5	-0.09259728
58	0x3ee8fea7	0.45506784
59	0x3dd95817	0.10612505
60	0x3d91da6d	0.071217395
61	0x3e030295	0.12793954
62	0x3d422ddd	0.04740702
63	0xbde496d3	-0.1116158
64	0xbe69a060	-0.22815084
65	0x3e91446b	0.2837251
66	0xbe482122	-0.19543889
67	0x3ddf0b3e	0.10890816
68	0xbd24f7a4	-0.04027523
69	0xbe633226	-0.22187099
70	0xbf4bb25d	-0.79569036
71	0x3c53af74	0.012920249
72	0xbdf67e38	-0.12035793
73	0xbbb6147d	-0.0055566416
74	0x3e45efe4	0.19329792
75	0x4069fbde	3.6559978
76	0x405bf3ce	3.4367557
77	0x3efd6746	0.49492854
78	0x4041d322	3.0285115
79	0x402b6976	2.6783118
80	0x3f823090	1.017107
81	0x4078273a	3.8773942
82	0x40823b78	4.0697594
83	0x3f563815	0.83679324
84	0x40396a8a	2.8971276
85	0x3feceb73	1.8509353
86	0x4028340e	2.6281772
87	0x4008095b	2.125571
88	0x4038c4a8	2.887003
89	0x401fd430	2.497326
90	0x3fdc0def	1.7191752
91	0x40413fe2	3.019524
92	0x4010d6cc	2.2631102
93	0x3ff8aafa	1.9427178
94	0x3f0771da	0.529081
95	0xbe12225a	-0.14270917
96	0x4077c262	3.8712392
97	0x401c1600	2.4388428
98	0x3f6fbd7c	0.93648505
99	0x3fda4926	1.7053573

weight_ih_l0 f4 [100, 52]
0	0xbe3a9d19	-0.1822399
1	0x3e3ef247	0.18647109
2	0x3ec59430	0.3858962
3	0xbf154628	-0.58310175
4	0xbfae4956	-1.361613
5	0xbe9e0ec1	-0.3087063
6	0xbf08f47f	-0.5349807
7	0x3eb30560	0.34965038
8	0x3fa000dd	1.2500263
9	0x404e99cf	3.2281377
10	0xbf430b78	-0.76189375
11	0xbdfb80d9	-0.12280435
12	0xbccacbe7	-0.024755431
13	0xbefdbdfc	-0.4955901
14	0xbe2e41c3	-0.17017274
15	0x3f8c066c	1.093946
16	0xbd0ec504	-0.034855857
17	0x3d51179e	0.051047914
18	0xbf18b8a8	-0.59656763
19	0xc00605fc	-2.0941153
20	0x3f720bf5	0.94549495
21	0x3e542fef	0.2072141
22	0xbfeef26e	-1.8667734
23	0x3dc57841	0.09642077
24	0xbf8fc5e2	-1.1232264
25	0xbfc10a8f	-1.5081347
26	0xbf266bcf	-0.6500825
27	0x3fc294b2	1.5201628
28	0x3f93aff2	1.1538069
29	0xbf1b035e	-0.6055201
30	0x3ea43f79	0.32079676
31	0xbfbf747a	-1.4957421
32	0xbe03ffb1	-0.12890507
33	0xbf318b94	-0.69353604
34	0xbe1f5783	-0.15560727
35	0x3dbae41d	0.091255404
36	0x3f462142	0.773945
37	0x3f2739e2	0.653227
38	0x3de2b517	0.110696964
39	0xbfa68b74	-1.3011308
40	0xbe9731ee	-0.2953028
41	0xbeb78075	-0.35840192
42	0xbdd7d6bf	-0.105390064
43	0xbe405372	-0.18781832
44	0xbeb7df2f	-0.35912463
45	0x3fb5d42f	1.4205378
46	0xc0339429	-2.805918
47	0xbd86b993	-0.06578364
48	0xbe30d1f0	-0.17267585
49	0xbeca3c2b	-0.3949903
50	0xbe5831c4	-0.21112734
51	0x3efb2e64	0.4905883
52	0xbf39eb2c	-0.7262447
53	0x3f07457c	0.528404
54	0xbf1fc5f5	-0.62411433
55	0xbe0d3116	-0.13788256
56	0x3e54df82	0.20788386
57	0xbece9dd5	-0.4035479
58	0xbecd6c00	-0.4012146
59	0xbef1167b	-0.47087464
60	0xbebed1f9	-0.3726957
61	0x3fc4f7d4	1.5388131
62	0xc023b65b	-2.558005
63	0xbd03e756	-0.03220304
64	0xbfad88cc	-1.3557372
65	0x3f18cc61	0.5968686
66	0x3c67b220	0.014141589
67	0x40012c6e	2.0183368
68	0xbd848a94	-0.06471744
69	0x3fd6643a	1.6749337
70	0x3d2baab5	0.041910846
71	0xbfd01101	-1.6255189
72	0x3e9a216f	0.30103633
73	0x3f5ec1d7	0.87014526
74	0xbeed18f0	-0.46308088
75	0xbf50b6c7	-0.81528896
76	0x3f162f5a	0.58666
77	0x3f12704b	0.57202595
78	0x3e8ccc2a	0.27499515
79	0x3fbbffd9	1.4687454
80	0x3e47a815	0.19497712
81	0x3ea27b82	0.31734854
82	0x3d312fae	0.04325836
83	0xbea7464f	-0.3267083
84	0xbf821c6c	-1.0164924
85	0xbf0a6e6a	-0.5407473
86	0x3f1784df	0.5918712
87	0xbdd0cbb8	-0.10195106
88	0xbed28895	-0.4111983
89	0x3e2fb5ca	0.17159191
90	0x3da0ac08	0.07845312
91	0xbe06bd64	-0.13158184
92	0xbf38e625	-0.7222617
93	0x3d706e26	0.058698796
94	0xbe86152c	-0.26188028
95	0x4002301b	2.0341861
96	0xbe59822c	-0.21241063
97	0x3f47442c	0.778384
98	0xbf2862bf	-0.65775675
99	0xbd983d6f	-0.074335925
100	0xbe04cb45	-0.12968166
101	0x3d3f2d45	0.04667403
102	0x3f0d52d5	0.55204517
103	0x3e9f79d2	0.3114763
104	0x3daef80c	0.08543405
105	0x3e94267b	0.28935608
106	0xbdfb92d4	-0.122838646
107	0x3e9212ce	0.28529972
108	0xbe5d3568	-0.21602404
109	0x3e3e66eb	0.18593948
110	0xbdae9248	-0.08523995
111	0xbed7c1c4	-0.4214002
112	0xbe8dd667	-0.27702639
113	0xbf4967b4	-0.78673863
114	0x3ef71892	0.48260933
115	0xbd8cbd81	-0.068720825
116	0xbf0b1cf4	-0.54341054
117	0xbe2acf5e	-0.16680667
118	0x3e2b1eff	0.16711043
119	0xbf2bc511	-0.67097574
120	0x3f51db3e	0.8197516
121	0xbef86d26	-0.48520774
122	0xbf058562	-0.5215665
123	0x3d82a46b	0.063790165
124	0x3e732073	0.23742847
125	0x3dbbee32	0.091762915
126	0xbe7c1f53	-0.24621324
127	0x3f19bac7	0.60050625
128	0x3e6f5e54	0.23375827
129	0xbee0ad9d	-0.43882456
130	0xbf55e238	-0.8354831
131	0xbe0338ca	-0.12814632
132	0xbe9e3da2	-0.30906397
133	0xbbd25777	-0.006419118
134	0x3f19d4e7	0.6009049
135	0x3e5a1b3b	0.2129945
136	0x3e9abd46	0.3022253
137	0x3e56e921	0.20987369
138	0xbe61c45e	-0.22047564
139	0x3e12a15b	0.14319365
140	0xbe793a10	-0.24338555
141	0xbebcbd1e	-0.36863035
142	0xbf19cf4c	-0.60081935
143	0x3ebdb439	0.3705156
144	0x3d596683	0.05307628
145	0x3e8eecd4	0.2791506
146	0xbd1171df	-0.035508987
147	0x3ec8fb1f	0.3925409
148	0x3e51003c	0.20410246
149	0x3e838e80	0.25694656
150	0x3f26a72f	0.6509885
151	0x3e746e94	0.23870307
152	0x3e077eae	0.13231918
153	0xbdb52d7d	-0.08846567
154	0xbde45164	-0.111483365
155	0x3eef11b9	0.4669321
156	0x3c4ba780	0.012430072
157	0x3f0cb54c	0.5496414
158	0xbe02b66c	-0.12764901
159	0xbf0b1745	-0.5433238
160	0xbe95e5bb	-0.29276833
161	0x3dd60b82	0.10451414
162	0x3f960440	1.1720047
163	0x3dffa09c	0.12481806
164	0xbdd5b196	-0.104342625
165	0x3f65d9ce	0.8978547
166	0x3fa7c508	1.3107004
167	0xbe244a9b	-0.16044085
168	0xc0028140	-2.0391388
169	0xbe023cef	-0.12718557
170	0x3c935ffb	0.017990103
171	0x3ec0a4f2	0.37625843
172	0x3e0c708e	0.13714811
173	0x3f03128f	0.51200193
174	0xbe4cf1fe	-0.20014188
175	0xbf261213	-0.6487133
176	0x3eb83ff0	0.3598628
177	0xbd835987	-0.0641356
178	0x3e9ec877	0.31012318
179	0x3e984155	0.29737344
180	0xbe30c902	-0.17264178
181	0xbee10fbc	-0.43957317
182	0xbd70b765	-0.05876865
183	0x3e1f0e1c	0.15532726
184	0x3e188ea5	0.14898165
185	0x3e4c0426	0.19923458
186	0xbe13ea76	-0.14444908
187	0xbe0e6995	-0.13907464
188	0x3cf8eb2f	0.030385582
189	0xbe1d0a33	-0.15335922
190	0x3d97287b	0.07380768
191	0xbd707a22	-0.058710225
192	0xbeffc026	-0.49951285
193	0xbe554062	-0.20825341
194	0x3e57b2c2	0.21064284
195	0xbe67c672	-0.22634295
196	0x3ed9b4c1	0.42520717
197	0x3ea5a43a	0.32351857
198	0x3ec00c91	0.37509587
199	0xbf044342	-0.5166513
200	0xbe9ca774	-0.30596507
201	0x3fd10732	1.6330321
202	0xbf1e6f5c	-0.6188867
203	0x3c048bc5	0.008089964
204	0xbdc439f5	-0.09581367
205	0xbf057e2c	-0.5214565
206	0xbe929256	-0.2862727
207	0x3d9d0bda	0.07668276
208	0xbf7adfd2	-0.9799777
209	0x3d1075c1	0.03526855
210	0xbe95551c	-0.29166496
211	0x3f593205	0.8484195
212	0x3e745161	0.23859169
213	0x3df651da	0.12027331
214	0xbfb2db9f	-1.3973273
215	0xbf4f26d8	-0.80918646
216	0x3e65c9ee	0.22440311
217	0x3eeefde1	0.4667807
218	0xbed9e8e9	-0.4256051
219	0xbba7e8fb	-0.005124209
220	0xbf85e585	-1.0460669
221	0xbd43e1ed	-0.04782288
222	0xbeea8771	-0.4580646
223	0x3eaf4130	0.34229422
224	0xbf10dbf4	-0.5658562
225	0x3fa4e2cd	1.2881714
226	0x3e41c6e9	0.18923534
227	0xbfb36d92	-1.4017813
228	0x3d6c5135	0.057694633
229	0x3e56fa98	0.20994031
230	0xbeddb74d	-0.4330391
231	0xbf7cdd9e	-0.9877566
232	0x3dc99a63	0.098439
233	0x3e39f9f3	0.18161754
234	0xbfe9600b	-1.8232435
235	0xbe71b6aa	-0.23604837
236	0x3de91b0d	0.11382113
237	0x3f8041d5	1.002009
238	0x3dab2480	0.08356571
239	0x3e82f58b	0.2557796
240	0xbeebcf33	-0.46056518
241	0xbd2eb50d	-0.042653132
242	0xbf5bcd7f	-0.8586044
243	0xbe641fa3	-0.22277693
244	0x3ecb886a	0.39752513
245	0x3f57af2b	0.8425166
246	0xbf2b5e0a	-0.6694037
247	0xbf0b0f28	-0.5432
248	0x3ecbb575	0.39786878
249	0x3f43f559	0.76546246
250	0xbece16bf	-0.4025173
251	0x3fc8f7e5	1.5700651
252	0x3efd88c2	0.495184
253	0x3f865554	1.049479
254	0xbecf8127	-0.40528223
255	0x3e6d131e	0.23151824

weight_hh_l0 f4 [100, 25]
0	0x40f42329	7.629292
1	0xc062980d	-3.5405304
2	0xbf2b7254	-0.66971326
3	0xbfbb918d	-1.4653794
4	0xc025da15	-2.5914357
5	0x3febed50	1.8431797
6	0xbea97179	-0.33094385
7	0x40660cd5	3.5945332
8	0x4048837a	3.1330247
9	0x40fe89b6	7.9543104
10	0xc07bfa3c	-3.937148
11	0xc071ba0d	-3.7769806
12	0x3ff98ea7	1.9496659
13	0xc02fb5ee	-2.745479
14	0xc0711840	-3.767105
15	0xbf8fa91a	-1.1223481
16	0x408ad593	4.338571
17	0x40a385cd	5.110083
18	0xc01f1e2f	-2.4862173
19	0xbfc1a136	-1.5127323
20	0xbe99f799	-0.30071715
21	0x40185a05	2.3804944
22	0xc0ffe549	-7.996739
23	0xc0b51d75	-5.659846
24	0x3f09ca5e	0.5382441
25	0x3ff06389	1.8780376
26	0x3ebd2716	0.36943883
27	0xc012f0f2	-2.2959561
28	0x4039d951	2.903889
29	0x40ed6f77	7.4198565
30	0xbfb62c71	-1.4232312
31	0x4011aeee	2.2763019
32	0x40a95a4f	5.292274
33	0xbfa37e99	-1.277301
34	0x40709124	3.7588587
35	0xc05c4ab3	-3.4420593
36	0x4126d6eb	10.42747
37	0x400ae2b3	2.1700866
38	0x3ff2e3f2	1.8975813
39	0x40142124	2.3145227
40	0xbe7c34fd	-0.24629588
41	0xbfef211f	-1.8681983
42	0x40c61f09	6.1912885
43	0xc03286b6	-2.789472
44	0xc0345400	-2.817627
45	0xc0191712	-2.392033
46	0xbe85386b	-0.26019606
47	0xbf91f972	-1.140425
48	0x3fcd93e5	1.6060759
49	0xbf50f3bc	-0.8162191
50	0x3e13d850	0.14437985
51	0x3dec271d	0.11530898
52	0x3f0780a6	0.52930677
53	0x3eea744c	0.45791852
54	0xc03a76c6	-2.9134994
55	0x407d2cc6	3.9558578
56	0x4045d962	3.091393
57	0x3f946909	1.1594554
58	0x3f6ef9ec	0.933501
59	0xbf8c5956	-1.0964763
60	0x3fa62a1e	1.2981603
61	0xc016a17c	-2.3536062
62	0xbfed7e1a	-1.8554108
63	0xc0219e9d	-2.525306
64	0x400b4410	2.1760292
65	0xbfd01bf4	-1.6258531
66	0xc05198f1	-3.2749598
67	0xbf40208b	-0.75049657
68	0x3fff3948	1.9939356
69	0x3f29f758	0.6639304
70	0xbfa428b8	-1.2824926
71	0x3fd9ea3f	1.7024611
72	0x3f079a6f	0.5297002
73	0x3f877df4	1.0585313
74	0x3fd2fb63	1.6482967
75	0xbfc8c548	-1.5685205
76	0x3efc3f7d	0.49267188
77	0x3f8933f9	1.0718986
78	0x401ae88c	2.4204435
79	0xc00daf65	-2.2138302
80	0x40690ec3	3.641526
81	0xc0218256	-2.52358
82	0x407e73ff	3.9758298
83	0x3f202d29	0.6256891
84	0xbffbc72e	-1.967016
85	0x4084bf2f	4.148338
86	0xc093e572	-4.6217585
87	0xbfc6893e	-1.5510633
88	0x3ed130f8	0.40857673
89	0x3cfacba5	0.030614683
90	0x3fd4baf4	1.6619554
91	0xc02e7f86	-2.7265334
92	0xbf1dc955	-0.61635333
93	0xbef21527	-0.47281763
94	0xbdd97459	-0.10617895
95	0xc0131d66	-2.2986693
96	0xbfff9e3c	-1.9970164
97	0xbfcc2e9c	-1.5951724
98	0xc0243f07	-2.566347
99	0x3e58b49a	0.21162644
100	0x41153a3c	9.326717
101	0x3ee2b994	0.4428221
102	0xbf761c50	-0.9613695
103	0xbf7faef2	-0.9987632
104	0xbf128751	-0.57237726
105	0x409c7a36	4.8899183
106	0xbf9fb8c4	-1.2478261
107	0x40a7af20	5.2401276
108	0x3ff1b4e2	1.8883326
109	0x4039dd9d	2.9041512
110	0xbfa33279	-1.2749778
111	0x404aad9f	3.166847
112	0x3ca4ea87	0.020131363
113	0xc04a653a	-3.1624284
114	0xc01e29e8	-2.4713078
115	0x3ee5013d	0.44727507
116	0xbf8d5026	-1.1040084
117	0xbef3f605	-0.47648636
118	0x4079457a	3.8948655
119	0x40213881	2.5190737
120	0xbecd00d7	-0.40039703
121	0x3fd9a2fc	1.7002864
122	0x3f6d5a49	0.9271589
123	0x408db390	4.4281693
124	0x3eceb160	0.403697
125	0xbe5aa7f7	-0.21353136
126	0xbfb2b659	-1.3961898
127	0xbf3d3352	-0.73906434
128	0x3f24e262	0.6440793
129	0x3ffa06c4	1.9533315
130	0xc0956979	-4.669125
131	0x3e72a4a4	0.23695618
132	0xbfe04db0	-1.7523708
133	0x3fc6ce42	1.5531695
134	0x3f2dac59	0.67841107
135	0x3eb14e29	0.34629944
136	0xbfa8a90f	-1.3176593
137	0x3e040473	0.12892322
138	0xbf11256e	-0.5669774
139	0xbf102d10	-0.5631876
140	0xbfecac04	-1.8489995
141	0xbf7a1d79	-0.9770122
142	0xbe47b7a4	-0.19503647
143	0xbf563631	-0.8367644
144	0x3fb85528	1.4400988
145	0x3c8896e5	0.016673515
146	0x3ec45e41	0.3835316
147	0xbfe7bb2b	-1.8103994
148	0xbfcde948	-1.6086817
149	0xbf97f1d8	-1.187068
150	0xc098c2ea	-4.773793
151	0xbebf1e69	-0.3732789
152	0xbf14e73d	-0.5816534
153	0xc0b9e9bd	-5.8097825
154	0x40d27d00	6.577759
155	0xc02db727	-2.7143037
156	0x40595828	3.3960056
157	0x3f8f270c	1.1183791
158	0x3f94ccbb	1.1624979
159	0x405dd149	3.4658988
160	0x3fed3975	1.853316
161	0x40642ae2	3.5651174
162	0xbf3bd4ce	-0.7337159
163	0x3fe412bf	1.7818221
164	0x3ead5a82	0.33858114
165	0x40a500e2	5.156358
166	0xbe9ef2d0	-0.31044626
167	0xc05afa04	-3.4215097
168	0x3e48a284	0.19593245
169	0xbfcd7f59	-1.6054488
170	0x3edb614a	0.42847663
171	0xbe7f8f5e	-0.24957034
172	0xbe3c41d7	-0.18384491
173	0xbe14f7f0	-0.14547706
174	0xc0b405d8	-5.6257133
175	0x404bf76a	3.186976
176	0xc0a169a6	-5.0441465
177	0x3efa9c95	0.48947588
178	0xbf383671	-0.7195807
179	0xbfe408a6	-1.7815139
180	0x3ff5b9df	1.9197348
181	0x3fe23514	1.7672448
182	0x3ff66610	1.9249897
183	0x40d9b77b	6.8036475
184	0x40525e2e	3.2869983
185	0x40a9d856	5.307658
186	0xc04abd34	-3.167798
187	0xc045b253	-3.089009
188	0xc01dfa2b	-2.468394
189	0xc086a7d2	-4.207986
190	0x402cfb87	2.702852
191	0xc0e9ab7f	-7.3021846
192	0x40488691	3.1332133
193	0xc03394c0	-2.805954
194	0xbeafe773	-0.3435627
195	0xc040c292	-3.0118756
196	0xc02b27b8	-2.6742992
197	0xc017f07a	-2.3740525
198	0xc12f7698	-10.966454
199	0xbf6cc09a	-0.92481387
200	0xbe36cdcf	-0.17851947
201	0x3bf5f2a3	0.007505731
202	0x3f911b07	1.1336373
203	0xbe77063a	-0.24123469
204	0x4001712d	2.0225327
205	0xc037a543	-2.8694618
206	0xbfa7e95e	-1.3118093
207	0xbee480cb	-0.4462951
208	0x3f35ecd8	0.7106452
209	0xbf892cb8	-1.0716772
210	0x40321dc9	2.783068
211	0x3fca0331	1.5782224
212	0xbf6f05cf	-0.9336824
213	0x3f32cdb4	0.6984513
214	0xbf63d7cc	-0.89001155
215	0x3fa4a2b9	1.2862159
216	0xbe7825f8	-0.24233234
217	0x3fbb0b9b	1.4612917
218	0x40170389	2.3595908
219	0xbf9fc4c3	-1.2481922
220	0xc007981f	-2.1186597
221	0x3f9cc2ae	1.2246912
222	0xc00cac52	-2.1980176
223	0x3f7a36de	0.9773997
224	0x3eb1263e	0.3459949
225	0xc09ecea6	-4.9627256
226	0x40206d39	2.5066664
227	0xc02c7edf	-2.6952436
228	0xc041ce01	-3.0281985
229	0xbd11c25f	-0.035585757
230	0x4030bb70	2.7614403
231	0x3f55cd1b	0.8351609
232	0x3f4ab6bc	0.7918508
233	0x4025468d	2.582431
234	0xbfb81197	-1.4380368
235	0x4065afd7	3.5888574
236	0xbfcf39f6	-1.6189563
237	0x3f7df3e8	0.99200296
238	0xc00fc268	-2.2462406
239	0xbf23f1e7	-0.6404099
240	0x404e5029	3.2236426
241	0x3f0e0eb8	0.5549121
242	0x4038c375	2.8869298
243	0xbfb3903f	-1.4028395
244	0xbf7a4b86	-0.9777149
245	0xc04f0c34	-3.2351198
246	0x3f37c320	0.7178211
247	0xc03bc311	-2.933781
248	0xc08550f5	-4.1661325
249	0x3fa7ff75	1.3124834
250	0x4059ff44	3.4062052
251	0xc0807479	-4.014218
252	0xbf0b3ca1	-0.5438939
253	0xbef1c961	-0.47223952
254	0x3f872fc6	1.0561454
255	0x3ff4eea4	1.9135327

bias_ih_l0 f4 [100]
0	0x40398932	2.8989987
1	0x40065e23	2.0994956
2	0x3f7634ae	0.9617413
3	0x3f8765df	1.0577964
4	0x4015869e	2.3363414
5	0x3f9a83b9	1.2071449
6	0x3fe7a22a	1.8096364
7	0x402039ce	2.503528
8	0x3f11afe8	0.56909037
9	0x3fcc759b	1.597339
10	0x3f35ad5b	0.70967644
11	0x3cd73860	0.026271999
12	0x402d097c	2.7037039
13	0x401d7dae	2.4607959
14	0x40099624	2.1497889
15	0x3fa64369	1.2989322
16	0x3f9ad2c3	1.2095569
17	0x4018ce3e	2.387588
18	0x3fc1a2b4	1.5127778
19	0xbe5baab6	-0.2145184
20	0x3f93b684	1.1540074
21	0xbc963ca4	-0.018339463
22	0x40789e6b	3.884669
23	0x3ff02420	1.8761024
24	0x3fa12161	1.2588311
25	0xbd83fd36	-0.064447805
26	0xbe8a748a	-0.27042037
27	0x3eee994a	0.46601325
28	0x3e4ed0e9	0.2019688
29	0x3d7d04a9	0.061772022
30	0xbe8f91eb	-0.28041014
31	0x3f4c58b8	0.79822874
32	0x3eaa1762	0.33220965
33	0x3f82e368	1.0225649
34	0xbf204a04	-0.6261294
35	0xbf86e3b5	-1.0538241
36	0x3e0231dc	0.12714332
37	0x3ed4405e	0.41455358
38	0xbea15930	-0.31513357
39	0x3ef53ead	0.4789938
40	0xbf53f297	-0.8279204
41	0x3df020be	0.11724995
42	0x3d8341d2	0.064090386
43	0xbf83e739	-1.0304939
44	0x3e724e5c	0.23662704
45	0xbf688675	-0.90830165
46	0x3f25fc77	0.64838356
47	0xbf7a0a08	-0.97671556
48	0xbdfce602	-0.12348558
49	0xbf0c4c61	-0.54804045
50	0xbbd2d01e	-0.006433501
51	0x3d522d83	0.051312935
52	0xbde6a1ec	-0.11261353
53	0xbcec65bb	-0.028857103
54	0x3d05484b	0.032539647
55	0x3dd81b46	0.10552077
56	0x3e27e230	0.16394877
57	0xbd8a722b	-0.06760057
58	0x3d7b16a6	0.061300896
59	0x3db88a0b	0.090107046
60	0xbd05e622	-0.032690175
61	0x3de8db14	0.11369911
62	0x3d42be03	0.04754449
63	0xbe871330	-0.26381826
64	0xbd5d031e	-0.05395805
65	0x3dc120cc	0.09430084
66	0xbe5cc57c	-0.2155971
67	0x3d2a71b8	0.041612357
68	0xbe97e777	-0.2966878
69	0xbccddf63	-0.025130933
70	0xbf2511e3	-0.6448042
71	0x3e378a1f	0.17923783
72	0x3d2d557d	0.042317856
73	0xbe8730eb	-0.2640451
74	0x3eaf86c2	0.342825
75	0x4025fc14	2.5935106
76	0x401d0a3b	2.4537494
77	0x3e7f724e	0.24945948
78	0x3ff2f6ac	1.8981528
79	0x4022fa09	2.546511
80	0x3ee4d66c	0.4469484
81	0x3f03f0e6	0.51539457
82	0x3fb63cc9	1.42373
83	0x3f1416f8	0.5784755
84	0x404c0416	3.1877494
85	0x3ff48478	1.9102926
86	0x3f71ae7e	0.9440688
87	0x3fc46746	1.5344017
88	0x403a69ad	2.9127
89	0x401e0990	2.4693336
90	0x401e042b	2.4690044
91	0x3facc48d	1.3497483
92	0x401145af	2.2698781
93	0x406e8196	3.7266593
94	0x3ee4fc55	0.44723764
95	0xbf1a323f	-0.6023292
96	0x4008ab61	2.1354601
97	0x3fd7459a	1.6818116
98	0x3f89c8ca	1.0764401
99	0x3fa5d347	1.2955102

bias_hh_l0 f4 [100]
0	0x402e1070	2.7197533
1	0x3ffdbc7e	1.9823148
2	0x3f695c11	0.9115611
3	0x3f808357	1.0040082
4	0x401476fb	2.319762
5	0x3fb96540	1.4484024
6	0x40008143	2.0078895
7	0x401951a7	2.3956087
8	0x3f19a030	0.6001005
9	0x3fe6a887	1.802018
10	0x3f657204	0.896271
11	0x3cd74fd0	0.026283175
12	0x40310cc9	2.7664053
13	0x401fdda7	2.4979036
14	0x40029a60	2.0406723
15	0x3fb8ec0c	1.4447036
16	0x3f9762d8	1.182704
17	0x40268b2e	2.6022449
18	0x3fdd456f	1.7286814
19	0x3d7eacfc	0.06217669
20	0x3f886db6	1.0658481
21	0xbdfcc3be	-0.12342022
22	0x4072757b	3.7884204
23	0x3fd92ac7	1.696618
24	0x3f8a8a30	1.0823421
25	0x3d897dfb	0.06713482
26	0x3d7ca8de	0.06168448
27	0x3f0d5056	0.5520071
28	0x3d2213ec	0.03956978
29	0x3dc7c99b	0.0975525
30	0xbed09b63	-0.4074355
31	0x3f1350f3	0.57545394
32	0x3ec720e0	0.3889227
33	0x3f42e7e9	0.76135117
34	0xbf54fec5	-0.8320125
35	0xbf831d81	-1.0243379
36	0x3e20ceb4	0.15703851
37	0x3ee26a38	0.44221663
38	0xbd97c504	-0.074106246
39	0x3f04eab9	0.5192066
40	0xbf461a8f	-0.77384275
41	0x3db40574	0.087901026
42	0x3ee479c9	0.44624165
43	0xbf8ee02b	-1.1162161
44	0x3f06114e	0.52370155
45	0xbf6a4c59	-0.9152275
46	0x3f1bf49e	0.6092013
47	0xbf3c78fb	-0.736221
48	0xbe2b7614	-0.16744262
49	0xbec9d31b	-0.39418873
50	0xbce4ea21	-0.027943673
51	0xbded05f2	-0.115733996
52	0xbe643d1c	-0.22288936
53	0xbd1567aa	-0.036475815
54	0x3de27df6	0.110591814
55	0x3cbbbdf2	0.022917721
56	0xbd9e5ab2	-0.077321425
57	0xbe20f52a	-0.15718523
58	0x3e3f6b6d	0.18693323
59	0x3d33b2f2	0.043871827
60	0x3e123943	0.14279656
61	0x3dc2464a	0.09486063
62	0x3e5b5f75	0.21423133
63	0x3cdee81d	0.02721029
64	0xbc9eaf17	-0.019370599
65	0x3ea16a09	0.3152621
66	0x3e113eae	0.14184067
67	0x3e4c4d5b	0.19951384
68	0xbd3aaf3f	-0.045577284
69	0xbdd95c4b	-0.106133066
70	0xbf3877f5	-0.7205804
71	0x3bcd8cc6	0.006272885
72	0xbd4709b2	-0.04859323
73	0xbe8306de	-0.25591177
74	0x3e360279	0.1777438
75	0x40240841	2.5630038
76	0x401dbd25	2.4646695
77	0x3cb97aec	0.022641622
78	0x3fed9060	1.8559685
79	0x40162d0d	2.3464997
80	0x3f075954	0.5287068
81	0x3f0285e9	0.5098558
82	0x3fa227b9	1.2668372
83	0x3f222ea3	0.6335241
84	0x405396cf	3.3060796
85	0x3ffff455	1.9996439
86	0x3f6bea15	0.92154056
87	0x3fbe0327	1.4844712
88	0x40529308	3.290224
89	0x401e3bb9	2.4723952
90	0x40270650	2.6097603
91	0x3f9f4b76	1.2444904
92	0x4016249d	2.3459847
93	0x407aeede	3.9208293
94	0x3f078f15	0.529527
95	0xbf065ace	-0.52482307
96	0x4007afd2	2.1201062
97	0x3fee24d7	1.8604993
98	0x3f8e873a	1.1135018
99	0x3f7c27c8	0.984982

weight f4 [52, 25]
0	0xbec0fc44	-0.37692463
1	0x3eb873f7	0.36025974
2	0x3ee68398	0.45022273
3	0x40171486	2.3606277
4	0xc00961f3	-2.1466033
5	0x40206757	2.5063074
6	0x3f8abc42	1.0838702
7	0x400e1a33	2.220349
8	0xc008e352	-2.1388745
9	0xbf51ceff	-0.81956476
10	0xbfb2948c	-1.3951583
11	0x3f821ec8	1.0165644
12	0x3e707b98	0.23484647
13	0x3ef66f1d	0.48131648
14	0x3fdd92c3	1.7310413
15	0x3ff5c478	1.9200583
16	0x3fa07783	1.2536472
17	0xbf15a493	-0.58454245
18	0xbf3a5892	-0.727914
19	0xbe9d6675	-0.3074223
20	0x3f916c6b	1.1361212
21	0xc025b2e2	-2.5890431
22	0xbf20e8e4	-0.6285536
23	0x3f565c75	0.8373483
24	0x4003cdcd	2.059436
25	0x3e3a5650	0.18196988
26	0x3ff3a543	1.9034809
27	0x3fe71ad6	1.8055065
28	0xbefb01ad	-0.49024716
29	0x3f7e69f7	0.9938044
30	0xbeee8a89	-0.4659007
31	0x3f11910a	0.5686194
32	0xbfb6eeb7	-1.42916
33	0xbf520e1b	-0.82052773
34	0xbebfc150	-0.37452173
35	0x3ef1f4c0	0.47257042
36	0xbd39919e	-0.045304887
37	0xbf159a85	-0.58438903
38	0xbf5bb62a	-0.85824835
39	0x3f454870	0.77063656
40	0x3ec86627	0.39140436
41	0x3fe8911d	1.8169285
42	0xbdece40f	-0.11566936
43	0x3fec7ae7	1.8475007
44	0xc078260e	-3.8773227
45	0x3e323073	0.17401294
46	0x3f547f08	0.83006334
47	0xbd1e946b	-0.03871576
48	0x3ff8de15	1.9442774
49	0xbde335c7	-0.110942416
50	0x3f82a834	1.0207582
51	0xbe58647b	-0.2113208
52	0xbee039c1	-0.43794063
53	0x3f40e4c7	0.75349087
54	0x3ed2b7c1	0.41155818
55	0x3fc96230	1.573309
56	0xbcb5082b	-0.022098621
57	0x3cbf94b4	0.023386337
58	0xc0870d49	-4.2203717
59	0xbc26e2d7	-0.010185919
60	0x3de06347	0.10956436
61	0xbb0fac7a	-0.0021922872
62	0x3d8811cd	0.0664402
63	0x3eec4807	0.46148703
64	0x3f07e28c	0.5308006
65	0xbf5b2d2f	-0.8561582
66	0xbeaa815a	-0.33301812
67	0x400937e9	2.1440375
68	0x3ea0152c	0.31266153
69	0x4007f9d3	2.124623
70	0x3ea8c8bc	0.32965648
71	0xbc2bbb0b	-0.010481606
72	0x3f90df3d	1.1318127
73	0x3f125621	0.5716267
74	0x3e0158fa	0.12631598
75	0x3f0c257f	0.54744714
76	0x3f0db314	0.55351377
77	0x3ee3b504	0.4447404
78	0xbf774e3a	-0.9660374
79	0xbe494949	-0.19656862
80	0xbf6ca43d	-0.9243811
81	0xbf593510	-0.8484659
82	0x3d4d2624	0.0500852
83	0x40257eb1	2.5858576
84	0x3f1199a8	0.56875086
85	0x3eff19e4	0.4982444
86	0x3ec28f23	0.3799983
87	0xbf1d5462	-0.6145688
88	0x3dfa328e	0.12216674
89	0x3f2df78f	0.6795587
90	0xbecd6e7f	-0.40123364
91	0xbeb20ba3	-0.34774503
92	0xbe88cbf5	-0.26718107
93	0x3e64230c	0.22278994
94	0xbfdc2bb4	-1.7200837
95	0x3e8dc9de	0.27693075
96	0x3fe2bdd5	1.7714182
97	0xbed4e47f	-0.4158058
98	0xbd1fc2c8	-0.039004117
99	0x3e07bb0f	0.13254951
100	0xbe5af2f4	-0.21381742
101	0x3d87d9dd	0.06633351
102	0xbd9f7536	-0.07786028
103	0xbe3c00cc	-0.18359679
104	0xbdcadd95	-0.09905545
105	0xbdb40827	-0.087906174
106	0xbd2b3e44	-0.041807428
107	0xbe9ac8b4	-0.3023125
108	0xbe873052	-0.26404053
109	0x3e998ea4	0.2999164
110	0xbcec9e3d	-0.028884048
111	0x3d811e31	0.06304587
112	0x3d3d59e5	0.04622831
113	0xbb59b3e6	-0.00332188
114	0x3d1ad6b9	0.03780243
115	0x3d7199d9	0.05898461
116	0xbd05d3de	-0.032672755
117	0xbe7076da	-0.23482838
118	0x3c917a24	0.017758437
119	0x3eee1898	0.4650314
120	0x3eaa8650	0.33305597
121	0x3e8e784c	0.27826154
122	0xba2c1cac	-0.0006565552
123	0x3e1170c0	0.14203167
124	0xbe372b42	-0.17887595
125	0xbd712741	-0.058875326
126	0x3f56110d	0.8361977
127	0x3f435060	0.7629452
128	0x3d8d6eee	0.06905924
129	0xbe0e1798	-0.13876188
130	0x3d5cdfa2	0.05392421
131	0x3b762118	0.0037556347
132	0x3dfaf7f3	0.12254324
133	0x3e8db846	0.27679652
134	0xbe3b299e	-0.18277594
135	0x3d83390e	0.06407367
136	0x3e6ee735	0.23330386
137	0xbea8461e	-0.32865995
138	0xbe06300f	-0.1310427
139	0x3f18936e	0.5959996
140	0xbc3ac1fc	-0.011398789
141	0x3ebe5c79	0.37179926
142	0xbd2475a8	-0.04015127
143	0x3f0dea5e	0.5543574
144	0xbf6e5409	-0.9309698
145	0x3e275871	0.16342331
146	0x3dfa8da0	0.12234044
147	0xbca6fce8	-0.020384267
148	0x3e38ac59	0.18034495
149	0x3e95962d	0.29216138
150	0x3f2833f4	0.65704274
151	0x3e5c0e22	0.21489766
152	0x3e66aab0	0.2252605
153	0x3e38def1	0.18053795
154	0xbf982865	-1.1887327
155	0x3f6e74aa	0.93146765
156	0xbeb4b3a3	-0.35293302
157	0x3ec49f89	0.38402966
158	0xbf69bfb2	-0.9130813
159	0xbf9aad3b	-1.2084116
160	0xbf06d4cf	-0.5266847
161	0xbe7daa1b	-0.24771921
162	0x3f1204e1	0.57038695
163	0x3f11c2c6	0.56937826
164	0x3e82f632	0.25578457
165	0x3ecbcc00	0.39804077
166	0xbea69160	-0.32532787
167	0x3f689714	0.90855527
168	0x3ef972d1	0.4872041
169	0xbe791cd1	-0.24327399
170	0xbf23a5d7	-0.63924927
171	0x40067bf6	2.101316
172	0xbeb1e5f4	-0.34745753
173	0x3f653f52	0.89549744
174	0xbe604ee1	-0.2190509
175	0x3b405524	0.0029347623
176	0xbf0f9a8f	-0.5609521
177	0xbeacbfe4	-0.3374015
178	0x3f356cea	0.70869315
179	0x3dcbbcb8	0.099481046
180	0x3f8baa60	1.0911369
181	0x3f61bbd5	0.88177234
182	0xbf107317	-0.56425613
183	0xc00d430e	-2.2072177
184	0xbf337306	-0.70097387
185	0xbdea6bab	-0.11446317
186	0xbf0ee959	-0.5582481
187	0x3f03079d	0.5118349
188	0x3ca617bd	0.020274991
189	0xbf043c30	-0.5165434
190	0xbc117a6b	-0.008879284
191	0x3e2bd9b0	0.1678226
192	0x3e5c2433	0.21498184
193	0xbe664fdf	-0.22491406
194	0x3fde34dd	1.7359883
195	0xbd0251b8	-0.031816214
196	0xbe150463	-0.14552455
197	0x3e20f610	0.15718865
198	0xbcf9dc93	-0.030500686
199	0xbd80572b	-0.06266626
200	0xbff71433	-1.9303039
201	0x3f2de6e9	0.67930466
202	0xbfbec50b	-1.4903883
203	0xbeffceb9	-0.49962404
204	0xbf0006a2	-0.5001012
205	0x3f9b54b9	1.213523
206	0x3e9ee009	0.310303
207	0x3fcbfa33	1.593573
208	0x3fd35d45	1.6512839
209	0x3e00c4fd	0.12575145
210	0xbef189f0	-0.4717555
211	0xbf09a9eb	-0.537749
212	0xbf890e03	-1.0707401
213	0xc079aa93	-3.901036
214	0xc016f01b	-2.3584049
215	0x3f5dc77a	0.866325
216	0x3f966e2b	1.175237
217	0x40444b40	3.067093
218	0x40017236	2.022596
219	0xc02e6dc1	-2.7254488
220	0xbe7d707f	-0.24749945
221	0xbf9d2a0b	-1.2278455
222	0xc054d560	-3.3255234
223	0x40840bfc	4.126463
224	0xc005d4a7	-2.0911043
225	0xbee93ecd	-0.45555726
226	0xbe98268c	-0.2971691
227	0x3f4b1f84	0.79344964
228	0x3d9fe167	0.07806664
229	0x3f299c41	0.6625405
230	0xbf85f695	-1.0465876
231	0xbfa110d7	-1.2583264
232	0xbe66d4a3	-0.22542052
233	0x40808638	4.016384
234	0x3fae3677	1.3610371
235	0xbf11c4ed	-0.5694111
236	0x3fb8125c	1.4380603
237	0xbfc54fd2	-1.5414984
238	0xbf8e37f9	-1.1110831
239	0xbeddd1ae	-0.43324035
240	0xbf30c832	-0.69055474
241	0xbf4b8498	-0.79499197
242	0xbff413c2	-1.906853
243	0x3fb4575e	1.4089162
244	0xbfa77261	-1.3081781
245	0x3fcfb1ab	1.6226095
246	0x3f15a6c6	0.584576
247	0x40031fc2	2.0488133
248	0x40245b2a	2.5680642
249	0x401246c5	2.2855694
250	0x3edf64a3	0.43631467
251	0xbf99aa84	-1.2005162
252	0xbf28815d	-0.6582239
253	0x3f30aeb9	0.69016606
254	0x3f1bafb0	0.6081495
255	0xbead8aab	-0.33894858

bias f4 [52]
0	0x3ee6990c	0.4503864
1	0xbe93ff3d	-0.2890567
2	0x400e0a15	2.2193654
3	0xbfc7bca7	-1.5604447
4	0x3edd218f	0.43189666
5	0xbe500f24	-0.20318276
6	0x3ded7f1f	0.11596512
7	0x3fc31af8	1.5242605
8	0xbfda8853	-1.7072853
9	0xbf54d7ea	-0.8314196
10	0xbe4f0b87	-0.20219241
11	0x40945a9e	4.6360617
12	0x3cb0bc64	0.021574207
13	0xbe5a5b46	-0.2132388
14	0xbfb0e268	-1.3819094
15	0x3f1ad767	0.6048493
16	0x3f2ea560	0.6822109
17	0x3d199f49	0.03750542
18	0xbd270a67	-0.040781405
19	0xbfe97ba5	-1.8240858
20	0x3f8fce41	1.1234819
21	0xbf7e8944	-0.994282
22	0x3f55aa3f	0.834629
23	0xbed084ed	-0.40726414
24	0x3f12ec0b	0.57391423
25	0xbfad5958	-1.354289
26	0x3fa557d8	1.2917433
27	0x3f9275af	1.1442164
28	0xbf94428d	-1.158281
29	0x3fd07cea	1.6288121
30	0x3f92fe9c	1.1483951
31	0xbf89f45c	-1.0777698
32	0xbe46cb7a	-0.19413558
33	0xbe0d9f52	-0.13830307
34	0xbfaab641	-1.333687
35	0xc001f917	-2.0308282
36	0xbf91b236	-1.1382511
37	0xbf814ac9	-1.0100948
38	0x3e4029de	0.18765971
39	0x3f4dec20	0.80438423
40	0xbebd2e2e	-0.36949295
41	0xbea767c2	-0.32696348
42	0x401afd93	2.421727
43	0x3eef9ddb	0.46800122
44	0xbf759b75	-0.95940334
45	0xbfa0a4a8	-1.2550249
46	0xbf267d1c	-0.6503465
47	0x40945a9f	4.636062
48	0xbfb0e266	-1.3819091
49	0xbd8a4a35	-0.06752435
50	0xbfed4c90	-1.853899
51	0xbf1e7921	-0.6190358
