code/Website Demonstration Code/model/backup.pth (torch, 105087 bytes, 10 tensors)

weight_ih_l0 f4 [100, 52]
0	0xbdfa15a6	-0.1221116
1	0xbdd7664d	-0.10517559
2	0xbe0bb366	-0.13642654
3	0x3d8afd25	0.06786565
4	0x3db2ad64	0.08724478
5	0xbd3df559	-0.04637656
6	0x3d7a59d8	0.061120838
7	0xbd5a6136	-0.053315364
8	0xbe15024b	-0.14551656
9	0xbd36921f	-0.044572946
10	0x3e3d1644	0.18465525
11	0x3c834a90	0.016026765
12	0xbddcc3eb	-0.10779556
13	0x3d1b6e15	0.03794678
14	0xbda10f97	-0.07864302
15	0xbddef82d	-0.108871795
16	0x3e1f8fad	0.15582152
17	0x3e2ab078	0.1666888
18	0xbdc871f1	-0.097873576
19	0x3e35fd1c	0.17772335
20	0xbd4a7531	-0.04942817
21	0xbe1a317c	-0.1505794
22	0xbddd2d36	-0.10799639
23	0x3e4bd24c	0.1990444
24	0xbdee3b24	-0.11632374
25	0x3d1c0708	0.038092643
26	0x3cafea02	0.021473888
27	0x3bf9d2c8	0.007624004
28	0x3c3d8f75	0.011569847
29	0xbe22534f	-0.15852092
30	0xbd5aec84	-0.053448215
31	0x3d0a0985	0.033700485
32	0xbe2180ca	-0.15771785
33	0xbd773a4a	-0.060358323
34	0x3e2d544e	0.16926691
35	0xbd303a81	-0.043024544
36	0x3d28070a	0.041022338
37	0x3d358af0	0.044321954
38	0x3b6bd9ce	0.0035987976
39	0xbe154060	-0.14575338
40	0xbd9cf722	-0.07664324
41	0x3c805d34	0.015669443
42	0xbb95182f	-0.004550002
43	0x3e32cc15	0.17460664
44	0x3d85c010	0.06530774
45	0xbb99be98	-0.00469191
46	0x3c64a6fa	0.013955826
47	0xbd5b0c4a	-0.053478517
48	0xb9f83e72	-0.00047348771
49	0x3deccb73	0.11562242
50	0x3cef3a2e	0.029202547
51	0x3de0a22c	0.10968432
52	0xbd4bf193	-0.04979093
53	0xbd308433	-0.043094825
54	0xbdcf5dfa	-0.101253465
55	0xbded7a09	-0.11595542
56	0xba8219a4	-0.0009925854
57	0x3e1e7120	0.15472841
58	0xbb9d61f4	-0.0048029367
59	0x3e01c825	0.12674005
60	0x3ccbd83a	0.024883378
61	0xbe061836	-0.13095173
62	0xbda73644	-0.08164647
63	0x3caa0ca2	0.020757977
64	0xbe195c48	-0.14976609
65	0x3d8a2749	0.06745774
66	0xbd3af7a6	-0.045646332
67	0x3e185f67	0.14880143
68	0xbe237b7d	-0.15965076
69	0x3d8c506e	0.06851278
70	0x3d7793b5	0.0604436
71	0xbd0cfc5f	-0.034420367
72	0x3e3e9435	0.18611224
73	0x3cd6a11d	0.026199872
74	0xbc4b7a57	-0.012419305
75	0x3da04a04	0.07826617
76	0x3d8a2215	0.06744782
77	0x3df4dad9	0.119558044
78	0x3e0fb5da	0.14034215
79	0xbcf31b1e	-0.029676016
80	0x3ddb1895	0.10698048
81	0x3e1e3457	0.15449654
82	0x3e10b217	0.14130436
83	0xbe0dd961	-0.13852455
84	0x3e3ca474	0.18422109
85	0x3e03a054	0.12854129
86	0x3c83b6a4	0.0160783
87	0xbe1d3770	-0.15353179
88	0xbdb08f0c	-0.08621034
89	0xbd1972fc	-0.037463173
90	0x3d99ad38	0.07503742
91	0xbd258792	-0.040412493
92	0xbe34048c	-0.1757986
93	0x3d42e931	0.04758567
94	0x3d981d51	0.07427467
95	0xbd684007	-0.056701686
96	0x3e18a6dc	0.14907402
97	0xbdf76d88	-0.12081438
98	0xbdaa9362	-0.08328892
99	0xbd65ef4d	-0.056136418
100	0xbd963c73	-0.073357485
101	0x3e3675e6	0.17818412
102	0xbe4d496d	-0.20047541
103	0x3c6340c0	0.013870418
104	0x3e288241	0.16455938
105	0x3e0ef1d7	0.13959442
106	0x3e0fa991	0.14029528
107	0xbd4b443e	-0.049625628
108	0xbe1f0b58	-0.15531671
109	0xbe0e3bc9	-0.13889994
110	0x3de1ade9	0.11019499
111	0x3d947587	0.07248979
112	0xbe2b2cc5	-0.16716297
113	0xbd04a1dd	-0.032380927
114	0xbc997b02	-0.018735413
115	0x3e50949a	0.20369187
116	0xbc2b53de	-0.010457007
117	0x3e37b9f1	0.17942025
118	0x3dc4de09	0.09612662
119	0x3d0d1d5f	0.03445184
120	0xbe1a9841	-0.15097143
121	0xbd0c3304	-0.03422834
122	0x3e35cfbd	0.17755027
123	0x3d2c2537	0.04202768
124	0xbdaad448	-0.08341271
125	0x3df05533	0.117350005
126	0xbe2cf1e0	-0.16889143
127	0x3d0376ca	0.032095708
128	0x3dbe22cd	0.092839815
129	0x3d7f9ca2	0.062405236
130	0xbe07ee5e	-0.13274524
131	0x3e1ca358	0.15296686
132	0xbde55654	-0.111981064
133	0x3dc4be68	0.096066296
134	0x3dd2cbc3	0.10292771
135	0x3db32115	0.08746544
136	0x3d51430a	0.051089324
137	0xbe5347d7	-0.20632873
138	0x3df238f9	0.11827273
139	0x3d024c5a	0.031811096
140	0xbdd7d35b	-0.1053836
141	0x3e5118bd	0.20419593
142	0x3c9883c1	0.018617513
143	0x3e173d49	0.14769472
144	0xbe0446ca	-0.12917629
145	0x3d86a87d	0.06575105
146	0xbdeda5d8	-0.11603898
147	0x3dc107fe	0.094253525
148	0xbdf5ce28	-0.12002212
149	0xbe44db46	-0.19224271
150	0xbddf0271	-0.108891375
151	0xbe2e9932	-0.17050627
152	0xbe18643d	-0.14881988
153	0x3df06657	0.1173827
154	0xbe3d4853	-0.18484621
155	0x3e5138ed	0.20431872
156	0xbe51487b	-0.20437805
157	0xbe44af72	-0.19207552
158	0x3d83791b	0.064195834
159	0x3d2864a8	0.04111162
160	0x3e236d68	0.15959704
161	0x3dd413bb	0.10355326
162	0xbd715fc2	-0.058929212
163	0x3e2eae7e	0.17058751
164	0xbd469ef3	-0.04849143
165	0xbde98897	-0.114030056
166	0xbe24e9c9	-0.16104807
167	0xbdde4426	-0.10852842
168	0x3e395641	0.1809931
169	0x3dd65a7e	0.10466479
170	0x3d6e576a	0.058188833
171	0x3e4b8901	0.19876482
172	0xbc5bae27	-0.01340822
173	0x3d39517d	0.04524373
174	0xbda553ea	-0.08072646
175	0x3e402a7c	0.18766207
176	0x3e3570df	0.17718838
177	0x3ce85321	0.028359951
178	0xbe3fa079	-0.18713559
179	0xbd029711	-0.03188235
180	0xbe37c3bf	-0.17945765
181	0xbb5aa57e	-0.0033362801
182	0x3c01748d	0.007901323
183	0xbcd775cf	-0.026301293
184	0x3e0eab94	0.1393264
185	0xbe4257db	-0.18978827
186	0xbd3233c9	-0.043506417
187	0x3d29145b	0.041279178
188	0x3d0acee4	0.033888713
189	0x3ddfc4aa	0.109261826
190	0x3e3f2a77	0.18668543
191	0xbd3dc9bd	-0.04633497
192	0xbe137128	-0.14398634
193	0xbd92b922	-0.071642175
194	0xbe1e41b6	-0.15454754
195	0xbe05bfae	-0.13061401
196	0xbd04865a	-0.03235469
197	0x3ca00eb7	0.019538267
198	0x3e251af4	0.16123563
199	0x3cf62069	0.030044751
200	0xbe30e513	-0.17274885
201	0xbdcccff5	-0.10000602
202	0x3b8b48b4	0.0042506102
203	0x3df07179	0.11740393
204	0x3e16f5bc	0.14742178
205	0xbe366054	-0.17810184
206	0xbe1d8392	-0.15382221
207	0xbdfc751b	-0.123270236
208	0x3dab637c	0.083685845
209	0xbd63ef3e	-0.05564808
210	0x3d43affd	0.047775257
211	0x3d2fd10e	0.04292398
212	0x3d646197	0.05575713
213	0x3e267c97	0.16258465
214	0x3e2586ae	0.16164657
215	0x3dc31af1	0.09526623
216	0x3e0a95ff	0.13533781
217	0x3dc32b12	0.095296994
218	0xbdc3fa67	-0.09569245
219	0x3e323ad0	0.17405248
220	0xbc98029a	-0.018555928
221	0xbe1c98c9	-0.15292658
222	0xbe205430	-0.15657115
223	0x3d6852d5	0.05671962
224	0x3e347876	0.17624077
225	0x3e054348	0.13013947
226	0xbe4ccf89	-0.20001043
227	0xbd06058d	-0.032720137
228	0x3e096de3	0.13420825
229	0xbdbdc6bb	-0.092664205
230	0x3dafee9c	0.08590433
231	0xbdb6f2ad	-0.089330055
232	0x3e0a7d81	0.13524438
233	0xbdc5ded2	-0.0966164
234	0xbd6319f0	-0.055444658
235	0x3db6786d	0.08909688
236	0x3e33ed27	0.17570935
237	0xbc153169	-0.009106019
238	0xbd643406	-0.055713676
239	0xbdf15042	-0.11782886
240	0x3e33b0a3	0.1754785
241	0xbe21fdff	-0.15819548
242	0xbe36a638	-0.17836845
243	0x3e10f819	0.14157142
244	0x3e27496a	0.16336599
245	0x3c703428	0.0146608725
246	0x3d9585c4	0.073009044
247	0x3e2343dd	0.15943857
248	0x3d9e5f1f	0.07732987
249	0xbd7fa459	-0.062412594
250	0x3e2dc386	0.16969118
251	0xbc0649ee	-0.008196337
252	0xbe38cf5a	-0.18047848
253	0x3d04c7b4	0.032417014
254	0xbe4c7c66	-0.19969329
255	0xbe2fb535	-0.17158969

weight_hh_l0 f4 [100, 25]
0	0xbe41e0a1	-0.18933345
1	0x3e32d6d2	0.1746476
2	0x3da04f2b	0.078276
3	0xbe24fa30	-0.16111064
4	0xbe3e77ea	-0.18600431
5	0xbe2b304b	-0.16717641
6	0xbcd16e25	-0.025565216
7	0xbd955ea9	-0.072934456
8	0x3c2e3d39	0.010634714
9	0xbdbde580	-0.09272289
10	0xbdae8ae8	-0.08522588
11	0x3e2797cb	0.16366498
12	0x3da1140a	0.0786515
13	0xbe2ccaad	-0.1687419
14	0x3d3c6ab5	0.0460002
15	0x3da7e730	0.081983924
16	0xbd0d3964	-0.03447856
17	0xbe077032	-0.13226393
18	0xbe23b84c	-0.15988272
19	0x3d150339	0.036380026
20	0x3d4ebe9a	0.05047474
21	0xbd2fa155	-0.042878468
22	0xbe262527	-0.1622511
23	0x3db6a86a	0.08918841
24	0x3d06bb35	0.03289338
25	0xbd92b8a4	-0.07164124
26	0x3e38b275	0.18036826
27	0x3d90ac19	0.07064075
28	0x3d7a098f	0.061044272
29	0xbdeb0108	-0.11474806
30	0x3b7bf977	0.0038448253
31	0x3cee2d03	0.029074198
32	0x3dfaaf85	0.12240509
33	0x3de71f5c	0.11285278
34	0x3a349372	0.0006888426
35	0x3de5dea9	0.1122411
36	0x3e20b481	0.15693857
37	0x3e42aa38	0.19010246
38	0x3e1169eb	0.14200561
39	0x3d96dc79	0.073662706
40	0x3e0ab469	0.13545384
41	0xbe07f565	-0.13277204
42	0x3dbbab8a	0.09163578
43	0x3b1595f5	0.0022824977
44	0x3bde6e03	0.0067880168
45	0xbdf9a459	-0.1218955
46	0xbcaef8f8	-0.021358952
47	0xbdfe82ed	-0.12427316
48	0x3c07cb2b	0.008288185
49	0x3df6b5d1	0.120463975
50	0xbd98664d	-0.07441387
51	0xbd6245b7	-0.055242267
52	0x3e1d0ddb	0.15337317
53	0x3dfc9f5b	0.12335082
54	0xbd1d614f	-0.03842288
55	0x3e3242b5	0.17408259
56	0xbd73cfe7	-0.059524443
57	0xbe3c781c	-0.18405193
58	0x3e0d183c	0.13778776
59	0x3cb88c8f	0.022527961
60	0x3e3c03f4	0.18360883
61	0x3e0ed5fc	0.13948816
62	0x3dc3cc09	0.09560401
63	0xbe203a84	-0.15647322
64	0xbe369e51	-0.1783383
65	0xbd58867d	-0.052862633
66	0xbe18b842	-0.14914039
67	0x3e20b805	0.15695198
68	0x3e084831	0.13308789
69	0x3de94ba3	0.1139138
70	0x3dc431ba	0.09579797
71	0xbdc97679	-0.0983705
72	0x3e3b8fc2	0.18316558
73	0x3e22c746	0.1589633
74	0x3d3b7b10	0.04577166
75	0xbc172e4b	-0.009227346
76	0xbe3fec39	-0.18742456
77	0xbe499640	-0.19686222
78	0x3dac5533	0.08414688
79	0x3c9b7950	0.018978745
80	0x3e03cd73	0.12871341
81	0xbda86c11	-0.08223737
82	0xbded5ed5	-0.115903534
83	0x3e0e7186	0.13910493
84	0xbd8597a7	-0.06523066
85	0xbde92716	-0.11384408
86	0xbdeecacd	-0.11659775
87	0x3e401835	0.18759234
88	0xbdc590e5	-0.09646777
89	0xbdfba4b7	-0.12287276
90	0xbe1bec03	-0.1522675
91	0xbe3a3d4d	-0.18187447
92	0x3d3341e4	0.04376401
93	0x3cef3fc1	0.029205205
94	0x3e4a0139	0.19727029
95	0x3e00a9c7	0.12564765
96	0x3e1f8944	0.15579706
97	0x3e144e1d	0.14482923
98	0xbb9afc43	-0.004729779
99	0x3e3b40b8	0.18286407
100	0xbbaa13eb	-0.0051903627
101	0xbde889f2	-0.11354436
102	0x3d721b13	0.05910785
103	0xbc54e336	-0.012993624
104	0x3e2546a6	0.16140231
105	0x3e21a152	0.15784195
106	0x3d49f732	0.04930801
107	0xbdf35436	-0.11881296
108	0xbd9aea10	-0.07564175
109	0x3c503628	0.012708224
110	0x3cfb5c2e	0.030683603
111	0xbe2b03fb	-0.16700737
112	0xbe55ec4d	-0.20890923
113	0x3d40ff36	0.047118388
114	0xbe17e02a	-0.14831606
115	0x3e122478	0.14271724
116	0xbe051a8c	-0.12998408
117	0x3dc0f4d5	0.09421698
118	0x3de63e98	0.112424076
119	0x3e0c84fb	0.13722603
120	0xbd06692b	-0.03281514
121	0x3e22175c	0.15829223
122	0x3da6e637	0.08149379
123	0x3e118ae5	0.1421314
124	0x3e52f043	0.20599465
125	0x3d9f5ede	0.07781766
126	0xbd119bdc	-0.03554903
127	0xbd2fa613	-0.04288299
128	0x3c216fd9	0.009853327
129	0x3d41f6c0	0.04735446
130	0x3e01ed44	0.12688166
131	0x3d943ad3	0.07237782
132	0x3e54ff64	0.20800549
133	0xbe18aa5e	-0.1490874
134	0xbd02bf1c	-0.031920537
135	0x3d41f7fd	0.04735564
136	0xbc226920	-0.009912759
137	0x3e3309c6	0.17484197
138	0x3de7c992	0.11317743
139	0x3db4a17f	0.088198654
140	0xbd46bce7	-0.048519995
141	0xbdc38360	-0.09546542
142	0xbd2f6150	-0.042817414
143	0xbd97e6cf	-0.0741707
144	0xbe2783b7	-0.16358839
145	0x3e480bf9	0.19535817
146	0x3d42f6ac	0.047598526
147	0x3e072fa7	0.13201772
148	0x3dc7e59b	0.09760591
149	0x3e1773f9	0.14790334
150	0xbdb52a04	-0.088459045
151	0x3db9f8db	0.090806685
152	0x3d535af8	0.051600426
153	0xbc4b90f9	-0.012424701
154	0x3cfb8444	0.030702718
155	0xbda76d12	-0.081751004
156	0xbd94f9b3	-0.07274189
157	0x3c01de25	0.007926499
158	0xbcf4c1dd	-0.029877597
159	0xbde28213	-0.11059966
160	0x3db3d1bf	0.0878024
161	0x3ddee551	0.108835824
162	0x3d479bdb	0.04873262
163	0xbe1109cb	-0.14163892
164	0xbe198540	-0.14992237
165	0xbc81b910	-0.015835315
166	0x3e0ccbe4	0.13749653
167	0x3d5ed7a9	0.05440489
168	0x3de5d12b	0.11221536
169	0xbe4b6544	-0.19862849
170	0xbdea65d3	-0.11445203
171	0xbcd8b548	-0.02645363
172	0x3e03208a	0.12805381
173	0xbcf3443c	-0.029695623
174	0x3de4ead2	0.11177601
175	0xbd51c625	-0.051214356
176	0x3d352aee	0.044230394
177	0xbdfe66da	-0.12421961
178	0x3e4c44be	0.19948098
179	0x3d15e3fe	0.036594383
180	0x3dc29ccd	0.095025636
181	0xbdec6d36	-0.11544268
182	0xbe0bebda	-0.13664189
183	0xbda20cb1	-0.07912577
184	0xbd3d3e16	-0.046201788
185	0xbd22fcfb	-0.039792042
186	0xbdf6f8ef	-0.12059199
187	0xbc35e725	-0.011102472
188	0x3dac6127	0.08416968
189	0xbd1373dd	-0.035999168
190	0xbc8cf373	-0.01720593
191	0xbd97294f	-0.07380926
192	0xbe2d9537	-0.16951452
193	0xbe2faac6	-0.17154989
194	0xbde1edac	-0.110316604
195	0xbdf4049e	-0.11914943
196	0xbdffe82b	-0.124954544
197	0x3befe0c0	0.0073204935
198	0x3e362f99	0.17791595
199	0x3d532ebd	0.051558245
200	0x3e49a11f	0.19690369
201	0xbd7834c2	-0.06059719
202	0x3ca727dd	0.02040475
203	0x3e20f990	0.157202
204	0xbd825973	-0.06364717
205	0xbcd85049	-0.02640547
206	0xbdd970fc	-0.10617253
207	0xbdf4645e	-0.11933206
208	0xbcfddecc	-0.030990027
209	0x3e1b087c	0.15139955
210	0x3e371d5a	0.1788229
211	0xbbcd776f	-0.006270341
212	0x3dafdda9	0.085872
213	0xbc0adcdc	-0.008475509
214	0x3d6d1c8e	0.05788856
215	0xbdac3d88	-0.08410174
216	0x3e2d0243	0.16895394
217	0x3e2cbd41	0.1686907
218	0x3d829531	0.06376112
219	0xbd8d9555	-0.069132484
220	0x3d357a44	0.044306055
221	0x3e0b43a4	0.13600022
222	0xbddedbe3	-0.10881784
223	0xbd4a933f	-0.04945683
224	0x3d80b280	0.06284046
225	0x3e180308	0.14844906
226	0xbe48637b	-0.19569199
227	0xbdcbd072	-0.09951867
228	0x3e218ad8	0.15775621
229	0x3da28a4b	0.079365335
230	0xbdbdf899	-0.09275932
231	0xbe27ccd7	-0.16386734
232	0x3da31fce	0.07965051
233	0xbd8dad72	-0.06917848
234	0xbbba8707	-0.005692366
235	0xbdc334d0	-0.095315576
236	0x3d7e8d90	0.062146723
237	0xbe436c49	-0.19084276
238	0xbd5d10c2	-0.05397106
239	0x3e2ccf07	0.1687585
240	0x3b90a313	0.004413971
241	0xbd9f572e	-0.077803
242	0xbe531f26	-0.20617351
243	0x3c7efc0f	0.015563025
244	0xbe029416	-0.12751803
245	0x3dcd05f5	0.10010902
246	0x3db056bc	0.08610293
247	0xbe1aef2b	-0.15130298
248	0xbe2c0e66	-0.16802368
249	0xbd93fccc	-0.072259516
250	0x3dfb6bf7	0.12276452
251	0x3bb91bfe	0.005649089
252	0xbd3f3b9f	-0.04668772
253	0x3c46caee	0.012133343
254	0xbd89b23f	-0.06723451
255	0x3dfb6d48	0.12276703

bias_ih_l0 f4 [100]
0	0xbe437f4f	-0.19091533
1	0xbe1136c7	-0.14181052
2	0xbe1c4ef5	-0.15264495
3	0x3df1f83e	0.118149266
4	0x3e460f91	0.19341876
5	0x3e03ee2b	0.12883823
6	0x3d37ea1e	0.044901006
7	0x3ce6984d	0.028148795
8	0xbcf58f5d	-0.029975588
9	0xbd395a6f	-0.04525226
10	0xbe590c01	-0.21195985
11	0xbde45a30	-0.111500144
12	0x3e2b5ca4	0.16734558
13	0xbe003986	-0.12521943
14	0x3e43e4c9	0.19130243
15	0xbcac8753	-0.021060621
16	0xbe19c164	-0.15015179
17	0xbd9a8c09	-0.07546241
18	0xbe2d401e	-0.1691899
19	0x3df33227	0.118748
20	0x3ad6cc51	0.0016387795
21	0x3c9e5f68	0.019332603
22	0x3dc438bc	0.09581134
23	0x3c1f139e	0.009709267
24	0x3dbdcffe	0.09268187
25	0xbdec3df0	-0.11535251
26	0x3cc245a5	0.02371485
27	0x3d803e30	0.06261861
28	0x3e00a53a	0.12563029
29	0x3e45621e	0.1927571
30	0x3e09a8dd	0.13443322
31	0x3decbb98	0.11559218
32	0x3dfc289b	0.123124324
33	0x3cca8637	0.024722202
34	0xbde1ade6	-0.110194966
35	0x3da6b2c9	0.08139569
36	0xbe231a5d	-0.15928026
37	0xbe047f0a	-0.12939087
38	0x3c41e45c	0.01183423
39	0x3e29a583	0.16567044
40	0x3dd3569b	0.10319253
41	0x3dc6ef7b	0.09713646
42	0xbd3d0dac	-0.046155617
43	0xbcb966fd	-0.022632116
44	0xbc154411	-0.009110467
45	0x3dd72043	0.105042
46	0xbd6b3c54	-0.05743058
47	0xbddb13df	-0.106971495
48	0x3de17747	0.110090785
49	0xbe08acfb	-0.13347237
50	0x3e4655c5	0.19368656
51	0xbb684a01	-0.00354445
52	0x3e1cfddf	0.15331219
53	0x3e1a9ea5	0.1509958
54	0x3dacca19	0.084369846
55	0xbd3d7a7c	-0.04625939
56	0xbd00621b	-0.03134356
57	0xbda530c2	-0.080659404
58	0xbe39234c	-0.18079871
59	0xbbfbfa24	-0.007689731
60	0x3d80c455	0.06287447
61	0xbe1e318e	-0.15448591
62	0x3e06591b	0.13119929
63	0xbdd4344b	-0.103615366
64	0xbe03291a	-0.12808648
65	0x3cdc411c	0.026886515
66	0xbe2cf531	-0.16890408
67	0x3ba20d2a	0.004945417
68	0xbe322085	-0.17395218
69	0xbe210c42	-0.15727332
70	0xbd935ed1	-0.07195819
71	0x3c4aa212	0.012367742
72	0xbd9e5527	-0.07731085
73	0x3e296bd4	0.1654504
74	0xbe1a7353	-0.15083055
75	0xbd20e5b6	-0.03928157
76	0xbd2ea62b	-0.04263894
77	0xbdf5073e	-0.11964272
78	0xbce58a82	-0.028020147
79	0xbdd67d68	-0.10473138
80	0x3d9d6206	0.07684712
81	0xbe0af2e5	-0.1356922
82	0x3e24ac92	0.16081455
83	0x3e29de49	0.16588701
84	0xbda50797	-0.08058088
85	0x3dd4d5d2	0.103923455
86	0xbe475583	-0.19466214
87	0xbb93655c	-0.004498167
88	0xbd3d18d7	-0.046166267
89	0x3e079d67	0.13243638
90	0xbd9c120f	-0.07620632
91	0x3dcb7587	0.09934526
92	0xbbfa3777	-0.0076360065
93	0xbadc6d84	-0.0016817306
94	0xbc830d3b	-0.01599752
95	0xbe0f13af	-0.13972352
96	0xbd6ca887	-0.057777908
97	0xbd14cb9d	-0.036326993
98	0xbad59bc1	-0.0016297029
99	0x3deae912	0.11470236

bias_hh_l0 f4 [100]
0	0xbe2fcfc4	-0.171691
1	0xbd8ef9ce	-0.0698124
2	0x3df5197b	0.11967751
3	0x3e02769e	0.12740561
4	0xbe301fa7	-0.17199574
5	0xbd05cc22	-0.03266538
6	0xbd8f984e	-0.07011472
7	0xbdc7cd1d	-0.09755919
8	0x3ba8435c	0.005134983
9	0xbda5158f	-0.080607526
10	0xbcf851da	-0.030312467
11	0xbe49790b	-0.1967508
12	0xbd16cea5	-0.036818165
13	0x3d45ff77	0.048339333
14	0xbdeb9af9	-0.11504168
15	0x3d22f691	0.039785925
16	0xbd99ed8f	-0.07516014
17	0x3df55411	0.11978925
18	0x3d07b17d	0.03312825
19	0xbdaa2a2f	-0.08308827
20	0x3c0bef70	0.008540973
21	0x3e2b5372	0.1673105
22	0x3c251826	0.010076558
23	0x3d81294f	0.06306707
24	0x3e18e09f	0.14929436
25	0x3db0c554	0.08631387
26	0xbd1c62da	-0.03818021
27	0x3e39024d	0.18067284
28	0x3e3d4994	0.18485099
29	0xbe2f5c5b	-0.17125075
30	0x3e1f249f	0.15541314
31	0xbcb93a12	-0.022610698
32	0xbe0bc32c	-0.13648671
33	0x3e048fc4	0.12945467
34	0xbd663d91	-0.056211058
35	0xbde0d424	-0.109779626
36	0x3dbb17a4	0.091353685
37	0xbd0133b9	-0.031543467
38	0x3e1130d0	0.14178777
39	0x3cd115b4	0.025523044
40	0x3d7f393c	0.062310442
41	0x3e395e4c	0.18102378
42	0x3e55f8b3	0.20895652
43	0xbd472a39	-0.04862425
44	0x3e1072f5	0.14106353
45	0xbe1c9741	-0.15292074
46	0x39e33bbe	0.00043341325
47	0xbdcb575f	-0.09928774
48	0x3e334b4a	0.17509189
49	0x3c536403	0.012902263
50	0x3e2586e8	0.16164744
51	0x3e400c78	0.18754756
52	0x3cee57e9	0.029094653
53	0x3e301cef	0.17198537
54	0xbbca45a9	-0.006172855
55	0xbd5d3562	-0.054005988
56	0xbdc5e5c3	-0.09662964
57	0x3d3599ae	0.044336013
58	0x3d1687fd	0.036750782
59	0x3e33eae5	0.17570074
60	0x3e4341c3	0.19068055
61	0x3d79edc2	0.06101776
62	0x3d603163	0.0547346
63	0x3de272c3	0.11057045
64	0x3d7fe420	0.062473416
65	0xba80d718	-0.0009829728
66	0xbdbaf5de	-0.09128927
67	0x3c7566b0	0.014978096
68	0x3caad249	0.020852225
69	0x3d13c1fc	0.03607367
70	0xbe369321	-0.17829563
71	0x3e066515	0.13124497
72	0xbe40cec7	-0.1882888
73	0xbe06faa8	-0.13181555
74	0xbe190c1a	-0.14946023
75	0xbdaa0403	-0.083015464
76	0xbe485f0a	-0.19567505
77	0x3da7f1d5	0.08200423
78	0xbdf63901	-0.120225914
79	0xbdb33288	-0.087498724
80	0x3e3ca812	0.18423489
81	0x3e27a6b8	0.16372192
82	0xbe18878a	-0.14895454
83	0xbe2fbd1d	-0.17161985
84	0xbdd6ccf4	-0.104883105
85	0x3e0cb6d7	0.13741623
86	0xbe4fa625	-0.20278223
87	0xbda4846f	-0.08033072
88	0x3da8d673	0.08244028
89	0x3e218dd9	0.15776767
90	0x3d805927	0.062670045
91	0xbe255c2d	-0.16148444
92	0x3e1d51fe	0.15363309
93	0x3d6aa7de	0.057288997
94	0xbd9aeb36	-0.07564394
95	0x3dbf34ce	0.093362436
96	0xbcc06c57	-0.02348916
97	0xbb3af9c8	-0.002853023
98	0x3e038ed3	0.12847452
99	0xbdcc99a4	-0.09990242

weight_ih_l0 f4 [100, 52]
0	0xbe2ee3d5	-0.17079099
1	0xbd47be43	-0.048765432
2	0x3d1318d8	0.035912365
3	0x3dae5579	0.08512396
4	0x3cba1387	0.02271439
5	0x3dc486ae	0.095960006
6	0xbdb40e50	-0.087917924
7	0x3d3634b8	0.04448387
8	0x3e0814cf	0.13289188
9	0xbcc49945	-0.023998866
10	0xbe3f81e6	-0.18701896
11	0xbd06df79	-0.032927964
12	0xbe2c7fd4	-0.16845638
13	0xbde7160f	-0.11283504
14	0xbdf5e6f5	-0.12006942
15	0xbcb8f391	-0.022577079
16	0x3e2beb52	0.16788986
17	0x3e2035a9	0.1564547
18	0xbdc6a528	-0.0969947
19	0x3df96727	0.12177878
20	0x3e2eed7d	0.17082782
21	0x3d29b5a3	0.041432988
22	0x3d9db398	0.077002704
23	0x3d5cf953	0.05394871
24	0xbe4f75cf	-0.20259784
25	0x3e43eedb	0.19134085
26	0xbe1187df	-0.14211987
27	0xbe0a92fb	-0.13532631
28	0x3d45a7ec	0.048255846
29	0x3e0ac845	0.1355296
30	0xbd8a2c63	-0.06746747
31	0xbd34328a	-0.04399351
32	0x3dc99746	0.09843306
33	0x3c9e4379	0.019319283
34	0xbe293107	-0.16522609
35	0xbe3ef9fb	-0.18650047
36	0xbd5fe4cd	-0.05466156
37	0x3caae7a6	0.020862412
38	0x3e1d4198	0.15357053
39	0x3df704e8	0.12061483
40	0x3e1d3f0c	0.15356082
41	0xbe340aa4	-0.17582184
42	0x3ddac903	0.10682871
43	0xbd5e3659	-0.05425105
44	0xbe3ad3fd	-0.1824493
45	0x3e12839a	0.14308015
46	0x3cfa228d	0.030534053
47	0xba8ff675	-0.0010983484
48	0xbdc5f994	-0.09666744
49	0xbcc96984	-0.024586447
50	0xbdbd2810	-0.09236157
51	0x3e25ff46	0.1621066
52	0x3ab1950d	0.0013548449
53	0xbe3247a1	-0.17410137
54	0xbd086ad6	-0.03330501
55	0xbd9bac31	-0.07601202
56	0x3e1eab39	0.15495004
57	0x3d43f3d8	0.04783997
58	0x3dfdef46	0.123991534
59	0x3d02878a	0.03186754
60	0x3e05cef5	0.13067229
61	0x3d9c2d68	0.07625848
62	0x3b531ca9	0.0032213128
63	0x3d1f4f58	0.038894027
64	0xbe3ef785	-0.18649109
65	0x3df139d9	0.11778612
66	0xbe27e6d5	-0.16396649
67	0x3dca1e3b	0.09869047
68	0xbdfabbbe	-0.1224284
69	0xbd813d98	-0.06310576
70	0x3e39efe0	0.18157911
71	0x3d16c96f	0.036813196
72	0x3cb8ea25	0.022572586
73	0xbba2930c	-0.004961377
74	0x3e4f8494	0.20265418
75	0x3e1473ca	0.14497295
76	0xbe076910	-0.13223672
77	0xbe37afe1	-0.17938186
78	0x3cf99fb4	0.03047166
79	0xbd23843b	-0.039921027
80	0xbc31370d	-0.010816348
81	0x3e5943f3	0.21217327
82	0xbd71439b	-0.058902364
83	0xbe448947	-0.19192992
84	0xbe3bc02f	-0.18335031
85	0xbe2be081	-0.1678486
86	0x3e2fa330	0.17152095
87	0x3d238aa4	0.03992714
88	0xbe202577	-0.15639292
89	0x3d9e50de	0.07730268
90	0xbdeaa418	-0.1145708
91	0xbdb71b04	-0.089407
92	0xbdc227a3	-0.09480216
93	0xbd55eb85	-0.052226562
94	0x3e36c33d	0.17847915
95	0xbe30397c	-0.17209429
96	0xbdbe7820	-0.09300256
97	0xbd5e67f2	-0.05429835
98	0xbdd3d181	-0.10342694
99	0xbde90f81	-0.1137991
100	0xbd70eec8	-0.05882147
101	0x3dba8df3	0.09109106
102	0xbcec4cb7	-0.028845174
103	0x3d9a72f9	0.075414605
104	0xbcc8f317	-0.024529977
105	0x3e0c42ec	0.13697404
106	0xbe34edba	-0.1766881
107	0xbd8f95a1	-0.07010961
108	0x3d2dc466	0.04242363
109	0xbe3f401f	-0.18676804
110	0xbd477b12	-0.048701353
111	0xbe2794f7	-0.1636542
112	0x3dc114ce	0.09427796
113	0xbda74826	-0.08168058
114	0xbe29d8f1	-0.16586663
115	0xbe002f9d	-0.12518163
116	0x3dc83fa7	0.09777766
117	0x3daec619	0.08533878
118	0x3e3a01d7	0.18164764
119	0xbe5330a8	-0.2062403
120	0xbe239920	-0.15976381
121	0xbe1d2c33	-0.15348892
122	0xbd7c61cc	-0.061616704
123	0x3d96160f	0.07328426
124	0xbdf555c3	-0.119792484
125	0x3b07f081	0.0020742717
126	0x3e06eef0	0.13177085
127	0xbd531eaa	-0.051542915
128	0xbd237938	-0.039910525
129	0x3e09dcdb	0.13463156
130	0x3d2e791f	0.04259598
131	0x3e0e9c3d	0.13926788
132	0xbc125e50	-0.008933619
133	0x3da195dc	0.078899115
134	0xbdbfbe46	-0.09362464
135	0xbe1ad2f1	-0.1511953
136	0x3d44fee0	0.04809463
137	0xbc34cd79	-0.011035317
138	0x3decab25	0.11556081
139	0xbe1338bb	-0.1437711
140	0x3cf27584	0.029597051
141	0x3e4ef30e	0.20209906
142	0xbe36eb65	-0.17863233
143	0xbd662569	-0.05618802
144	0xbdb5b26f	-0.08871924
145	0xbe39c8e0	-0.18143034
146	0x3e2d9737	0.16952215
147	0x3d5282dd	0.051394332
148	0xbd874bdb	-0.06606265
149	0xbd3e1686	-0.0464082
150	0xbe0b635a	-0.13612118
151	0xbd4bba5b	-0.04973827
152	0x3dfb36d3	0.12266316
153	0x3e1944b2	0.14967611
154	0x3e03ceda	0.12871876
155	0x3da0cad2	0.07851185
156	0x3e2202ec	0.15821427
157	0xbc5eb04f	-0.01359184
158	0xbc897e95	-0.016783992
159	0xbd770e0c	-0.06031613
160	0x3e317e90	0.17333436
161	0xbc3cd915	-0.011526366
162	0xbd8ada9f	-0.0677998
163	0x3e337be7	0.17527734
164	0xbe4a453d	-0.19752975
165	0x3c63b701	0.013898612
166	0x3df67939	0.1203484
167	0x3deb5f71	0.114928134
168	0x3ded745e	0.11594461
169	0xbdc0e902	-0.09419443
170	0xbbf99d92	-0.007617661
171	0x3de49bc2	0.11162521
172	0xbe35cc59	-0.17753734
173	0x3e12d16b	0.14337699
174	0x3cb53665	0.022120664
175	0xbdd4a10e	-0.10382281
176	0xbddd1d8c	-0.10796651
177	0x3d9b21d2	0.0757481
178	0xbdaa205a	-0.08306952
179	0x3e368495	0.17824014
180	0xbe3e4834	-0.18582231
181	0x3d8db708	0.06919676
182	0x3e3b36c0	0.18282604
183	0xbd3dee32	-0.04636974
184	0xbd590905	-0.052987117
185	0xbe0b54f6	-0.13606629
186	0xbd082f60	-0.033248305
187	0x3c90af0b	0.017661592
188	0xbd5c2ac7	-0.053751733
189	0x3e065914	0.13119918
190	0x3e13d5f4	0.14437085
191	0x3def5af9	0.116872735
192	0x3e0850df	0.133121
193	0x3de204f6	0.110361025
194	0xbe267d6e	-0.16258785
195	0xbd28b66f	-0.041189607
196	0x3cfcae8c	0.03084495
197	0x3d26689b	0.040627103
198	0x3d7a2b11	0.061076228
199	0xbd1cbb8a	-0.03826479
200	0xbe3e9955	-0.18613179
201	0x3e40d6ba	0.18831912
202	0xbdc37f04	-0.09545711
203	0xbd3c6cbd	-0.04600214
204	0xbe2ed285	-0.17072494
205	0xbd33d7f7	-0.043907132
206	0x3e1f7c27	0.15574704
207	0x3e44702c	0.19183415
208	0xbdd86779	-0.10566611
209	0x3cf53092	0.029930387
210	0x3d7ae5f3	0.061254453
211	0xbc86f2ca	-0.016473193
212	0xbe0d965e	-0.13826892
213	0x3e113b7d	0.14182849
214	0xbe0f5acb	-0.13999479
215	0xbe120337	-0.14259039
216	0xbe33bf31	-0.17553402
217	0x3d12f7a9	0.03588072
218	0x3d2efdbe	0.042722456
219	0x3e24d785	0.16097839
220	0x3deee69c	0.11665079
221	0x3deee4f7	0.11664765
222	0x3e12cafa	0.14335242
223	0x3c54492b	0.012956898
224	0x3d378f1d	0.044814218
225	0x3dd20e7e	0.102566704
226	0x3c6087d7	0.013704262
227	0x3e266983	0.16251187
228	0x3cc3b6e1	0.023890914
229	0xbe36b1d8	-0.1784128
230	0x3d3938b6	0.0452201
231	0xbdd55e62	-0.10418393
232	0x3e0da9b5	0.1383427
233	0x3e32adb8	0.17449081
234	0xbd9a486d	-0.07533345
235	0x3e2302ff	0.15919112
236	0xbd422abe	-0.047404043
237	0x3bae95ef	0.005327932
238	0xbd69163d	-0.056905974
239	0xbe4e5ca6	-0.2015253
240	0x3c2b370c	0.010450136
241	0xbe4b904d	-0.19879265
242	0xbe516eb0	-0.2045238
243	0xbe3de2af	-0.18543504
244	0xbe08bf95	-0.13354333
245	0x3d600ace	0.054697804
246	0x3defe657	0.11713856
247	0xbe2b0958	-0.16702783
248	0x3e03a3d2	0.12855461
249	0xbdc3ecc2	-0.09566642
250	0x3d6f2ad9	0.058390472
251	0x3de98667	0.11402588
252	0x3d8dc731	0.06922758
253	0xbcd880de	-0.026428636
254	0xbcab3810	-0.020900756
255	0x3df85bda	0.12126894

weight_hh_l0 f4 [100, 25]
0	0x3e3ac694	0.18239814
1	0xbd35c334	-0.044375613
2	0x3c9135a9	0.017725782
3	0x3dbfe2b4	0.09369412
4	0xbe2bd16a	-0.16779104
5	0x3e09afc3	0.13445954
6	0xbda27ccf	-0.079339616
7	0x3e17a48c	0.14808863
8	0xbc3aeea4	-0.011409435
9	0x3e45b4b9	0.19307221
10	0xbe19d570	-0.15022826
11	0xbe3a2230	-0.18177104
12	0x3d897912	0.067125455
13	0x3dd4debd	0.103940465
14	0xbd26dfd9	-0.04074082
15	0xbd0ae9a5	-0.033914227
16	0xbe1fad51	-0.15593459
17	0x3d138145	0.036011953
18	0xbc34590c	-0.011007559
19	0x3d092338	0.033480853
20	0x3d47dd52	0.048795052
21	0x3c31c84b	0.010850976
22	0x3e43b7de	0.19113109
23	0x3bbeee42	0.0058267424
24	0xbdffd51f	-0.124918215
25	0x3b612dc0	0.0034359545
26	0x3b8b9e3e	0.0042608073
27	0xbe476704	-0.19472891
28	0x3e26b470	0.16279769
29	0x3e576511	0.21034648
30	0x3da115d5	0.07865492
31	0x3e2cdbea	0.16880766
32	0xbda8c83a	-0.08241315
33	0x3de3cd3e	0.11123131
34	0x3e27aad1	0.16373755
35	0x3e239466	0.15974578
36	0xbc90e888	-0.017689005
37	0x3df6b5a5	0.12046365
38	0x3e0d45ea	0.13796201
39	0x3b202d24	0.0024440968
40	0xbe460fdf	-0.19341992
41	0x3d8818ec	0.066453785
42	0x3df72ff5	0.12069694
43	0xbe4aa5fa	-0.19789878
44	0x3c4230ce	0.011852456
45	0xbe3e6265	-0.18592222
46	0x3d1518e9	0.03640071
47	0xbe44f1b1	-0.19232823
48	0x3dea34d0	0.114358544
49	0xbe4a8955	-0.1977895
50	0xbbfbe469	-0.0076871407
51	0xbde90b45	-0.113791026
52	0xbe36a0f0	-0.1783483
53	0x3e2791bc	0.16364187
54	0xbd2d34f9	-0.042286847
55	0x3e142d0d	0.1447031
56	0xbe39d2b9	-0.1814679
57	0x3cfedfde	0.031112608
58	0xbc867875	-0.01641486
59	0xbdfa2d9f	-0.12215733
60	0x3c9ea4fe	0.019365784
61	0xbe2717ce	-0.16317675
62	0xbdb56b0d	-0.08858309
63	0x3cc67bd0	0.02422896
64	0x3de56126	0.1120017
65	0x3d4cfd97	0.05004653
66	0xbd8f469c	-0.069958895
67	0x3d6e60a8	0.058197647
68	0x3e1c325c	0.15253586
69	0xbdd178e0	-0.10228133
70	0xbe231f47	-0.159299
71	0xbb9f6b0e	-0.004865057
72	0x3d28b6eb	0.04119007
73	0x3d42db13	0.047572207
74	0xbba61198	-0.0050680153
75	0x3dfdfa89	0.124013014
76	0x3e191035	0.14947589
77	0xbc994128	-0.018707827
78	0x3e385da9	0.18004479
79	0x3cc9bd21	0.024626317
80	0xbcb40286	-0.02197386
81	0xbd15f796	-0.03661307
82	0x3dd1985b	0.102341376
83	0x3dfdcece	0.123929605
84	0x3e0cd868	0.13754427
85	0x3dfc4e1e	0.12319587
86	0x3e06f587	0.13179599
87	0xbe3ec009	-0.18627943
88	0xbe14682d	-0.14492865
89	0xbbe34f03	-0.006936909
90	0x3d0d5ff9	0.034515355
91	0x3dbddaa2	0.092702165
92	0x3d7cb0d7	0.061692085
93	0xbdab0b2b	-0.083517395
94	0xbd153905	-0.03643133
95	0x3d26c073	0.040710878
96	0x3d8f2bcc	0.069907755
97	0xbe3f0bf3	-0.18656902
98	0xbdaeaf5e	-0.085295424
99	0xbd11a2bc	-0.035555586
100	0x3ca5e1c1	0.02024925
101	0xba259440	-0.00063163415
102	0x3e1f8920	0.15579653
103	0x3e515afe	0.20444867
104	0xbe03fbfd	-0.12889095
105	0x3d6ca46c	0.057773992
106	0x3b9587a2	0.004563288
107	0x3cc17ba7	0.023618532
108	0xbc413f1c	-0.011794832
109	0xbd2a0a18	-0.041513532
110	0xbe15f7bd	-0.14645286
111	0xbdfec450	-0.124397874
112	0x3e371a84	0.17881209
113	0xbcfad817	-0.030620618
114	0xbdae4130	-0.08508527
115	0xbda5e1a4	-0.08099678
116	0x3de87c48	0.1135183
117	0x3d1ddb7c	0.038539395
118	0xbe0fb7be	-0.14034936
119	0xbe3a22db	-0.18177359
120	0xbdb1a585	-0.086741485
121	0x3de2435e	0.110480055
122	0xbd1c7547	-0.038197782
123	0xbe11688f	-0.14200042
124	0xbdc32f96	-0.09530561
125	0xbd934d96	-0.07192533
126	0x3b936817	0.0044984925
127	0x3bcb7419	0.0062089083
128	0xbc89f608	-0.01684095
129	0xbdd62de1	-0.104579695
130	0xbdfea1cc	-0.12433204
131	0xbbbb9192	-0.0057241404
132	0x3d9c2477	0.076241426
133	0xbd0191dc	-0.031633243
134	0x3de0d3b6	0.10977881
135	0x3e43754d	0.19087715
136	0x3e045cfd	0.12926097
137	0x3d8e156c	0.0693768
138	0x3e337401	0.1752472
139	0x39e52472	0.00043705438
140	0xbd094d01	-0.033520702
141	0x3d6793a6	0.056537293
142	0xbe1a1c54	-0.15049869
143	0xbcb63ac8	-0.022244826
144	0x3e4e8c63	0.20170741
145	0x3d5cb07f	0.053879257
146	0xbdeda73b	-0.11604162
147	0x3ce8d193	0.028420245
148	0x3dcdcf76	0.10049336
149	0xbe4f9851	-0.20272948
150	0xbe3a7efe	-0.18212506
151	0xbe0a64ef	-0.13515066
152	0x3dbfc388	0.093634665
153	0x3dafd5b3	0.08585682
154	0x3e2e1ee1	0.17003967
155	0xbe3e1c37	-0.1856545
156	0xbe325ad2	-0.17417458
157	0x3e4331ac	0.19061917
158	0xbd9f57b2	-0.077803984
159	0x3bc2d6b9	0.005946007
160	0x3da7a973	0.08186617
161	0xbddec970	-0.10878265
162	0xbdcef6b8	-0.101056516
163	0xbe1e2093	-0.15442114
164	0xbda25271	-0.07925881
165	0x3d59a101	0.05313206
166	0xbd82fb1f	-0.06395554
167	0x3c0bbcc7	0.008528895
168	0xbe3c4b63	-0.18388133
169	0xbe3e3f9d	-0.18578954
170	0xbdcfa59c	-0.10139009
171	0xbd35450e	-0.04425531
172	0xbc8df7de	-0.017330106
173	0xbe3ec0b6	-0.18628201
174	0x3d5cd79a	0.05391655
175	0xbd90ba5a	-0.07066794
176	0x3d8ad947	0.067797236
177	0xbe087aa8	-0.1332804
178	0x3d2d169e	0.042257898
179	0x3e156228	0.14588225
180	0x3e0d39fd	0.13791652
181	0xbd701e14	-0.058622435
182	0x3e0c90f4	0.1372717
183	0xbc982a32	-0.018574808
184	0xbcf31ea2	-0.029677693
185	0x3de0d41e	0.10977958
186	0x3d11d72d	0.0356056
187	0xbd400fb1	-0.046889964
188	0x3b8c1a69	0.0042756093
189	0xbc0f84cc	-0.008759689
190	0x3d6a215c	0.05716072
191	0x3dd57834	0.104233176
192	0xbd984e50	-0.07436812
193	0x3d0d4c0f	0.034496363
194	0x3d5ce0d3	0.053925347
195	0xbe3a9662	-0.18221429
196	0xbd86fe78	-0.06591505
197	0x3db11beb	0.08647903
198	0xbe488b96	-0.19584498
199	0xbcbf4040	-0.023346066
200	0x3e20e7bb	0.15713398
201	0xbdf1d7dc	-0.1180875
202	0xbc936f7a	-0.017997492
203	0xbda2c058	-0.07946843
204	0xbe1ad782	-0.15121272
205	0xbe180c0f	-0.1484835
206	0x3d6844c7	0.056706216
207	0xbe13160b	-0.14363877
208	0x3ddc9c0c	0.10771951
209	0xbdc366ea	-0.09541114
210	0xbe3bb3ce	-0.18330309
211	0x3e0aaf67	0.13543473
212	0x3dccacae	0.099938735
213	0x3e2fc42e	0.1716468
214	0x3db509bb	0.088397466
215	0xbe150915	-0.14554246
216	0xbcd56d9e	-0.026053246
217	0xbdefc46c	-0.117073864
218	0xbe335d34	-0.17516023
219	0xbd20931a	-0.039202787
220	0x3d955283	0.072911285
221	0x3ce0fdc8	0.027464762
222	0x3e2677ae	0.16256592
223	0x3d17352c	0.036915943
224	0xbe1c0e10	-0.1523974
225	0xbe138d78	-0.14409435
226	0x3e18a73c	0.14907545
227	0xbd59570a	-0.053061523
228	0x3dec5795	0.115401424
229	0xbd669fc8	-0.056304723
230	0xbdadafd9	-0.08480806
231	0xbde403aa	-0.11133511
232	0x3e37fc3c	0.17967314
233	0x3dc92928	0.09822303
234	0xbe586bd1	-0.21134879
235	0xbc88192e	-0.01661357
236	0x3d349fbd	0.04409765
237	0x3c7f4911	0.015581385
238	0x3dc52247	0.096256785
239	0xbc8986b4	-0.016787864
240	0xbe3dfdcb	-0.18553846
241	0xbe25b7fb	-0.16183464
242	0xbdf11bda	-0.117728904
243	0xbcdf8d5a	-0.027289081
244	0x3d072071	0.032989923
245	0x3cb5ac27	0.022176815
246	0x3e202d0a	0.15642181
247	0x3c56e360	0.013115734
248	0xbdabbcae	-0.08385597
249	0x3d13731e	0.035998456
250	0xbe423020	-0.1896367
251	0x3cf3330f	0.029687433
252	0xbe4bd676	-0.19906029
253	0x3e254a5f	0.16141652
254	0xbc8106fc	-0.0157504
255	0x3dd3bd9f	0.10338902

bias_ih_l0 f4 [100]
0	0xbca6e4e1	-0.02037281
1	0x3c9d7311	0.019219907
2	0xbe29baa5	-0.16575105
3	0xbb14d118	-0.0022707637
4	0xbe283c34	-0.16429216
5	0x3dcac9cf	0.09901773
6	0xbe08df0c	-0.13366336
7	0xbe43c4c5	-0.1911803
8	0xbe187898	-0.14889753
9	0xbe27d04f	-0.16388057
10	0xbd8b73f8	-0.06809229
11	0xbcc5b2b6	-0.024133068
12	0xbbe85feb	-0.0070915124
13	0xbd809c1d	-0.06279776
14	0x3d0130da	0.03154073
15	0x3d7a95ef	0.061178144
16	0xbe175958	-0.14780176
17	0xbd8e3992	-0.069445744
18	0xbe27bf3f	-0.16381548
19	0x3dc7b6cc	0.097516626
20	0xbd28562f	-0.041097816
21	0xbddef1cf	-0.10885965
22	0xbe554c25	-0.20829828
23	0xbd5fedce	-0.054670148
24	0x3e080439	0.13282861
25	0xbcd94dc3	-0.026526337
26	0x3e2143b1	0.15748478
27	0x3dcaad22	0.09896304
28	0x3e1ba652	0.15200165
29	0x3c2295c6	0.009923404
30	0xbe2637d7	-0.16232239
31	0xbd43865f	-0.047735568
32	0xbe12548b	-0.14290063
33	0xbbd67c42	-0.0065455744
34	0x3e12b891	0.14328219
35	0xbe51e7a9	-0.20498528
36	0x3dd47da5	0.10375527
37	0x3d89e4c5	0.067330875
38	0x3e370bd8	0.17875612
39	0xbda1091a	-0.07863064
40	0x3d8df481	0.06931401
41	0xbdd35528	-0.10318977
42	0x3ddbf9a7	0.10740977
43	0x3e3f965c	0.18709701
44	0xbc83c92e	-0.01608714
45	0x3dae0506	0.08497052
46	0xbd9be272	-0.076115504
47	0x3d384e70	0.04499668
48	0x3e3c0ccd	0.18364258
49	0x3e171160	0.14752722
50	0x3d042835	0.032264907
51	0xbc99cceb	-0.01877447
52	0xbda3af96	-0.07992475
53	0x3d309fcb	0.04312114
54	0xbda8bf3b	-0.08239599
55	0xbc83c900	-0.016087055
56	0x3e183a25	0.1486593
57	0x3cf63528	0.030054644
58	0xbdcb15f3	-0.09916296
59	0xbbead5bf	-0.007166594
60	0x3d82f281	0.0639391
61	0xbdfb1276	-0.122593805
62	0xbc7e0b07	-0.015505559
63	0x3c0cfa2e	0.008604569
64	0xbe1debd3	-0.15421991
65	0x3da97222	0.08273722
66	0x3e142fe4	0.14471394
67	0x3dfc732d	0.123266555
68	0x3b4ba0ec	0.0031071259
69	0x3c812622	0.015765253
70	0x3bf42fa0	0.0074519664
71	0xbdce6464	-0.10077742
72	0xbcfd193c	-0.030895822
73	0xbe405eca	-0.18786159
74	0x3dec6c63	0.115441106
75	0x3d407c30	0.046993434
76	0x3e02a257	0.1275724
77	0x3e2e22c4	0.1700545
78	0xbdce9517	-0.100870304
79	0xbcbb7723	-0.022883957
80	0xbd350e6e	-0.044203214
81	0xbde30c51	-0.110863335
82	0xbe39bf65	-0.18139417
83	0xbe3e079b	-0.18557589
84	0x3e3d8571	0.18507935
85	0xbc741797	-0.014898202
86	0x3e2aad92	0.16667774
87	0xbe06eaa9	-0.13175453
88	0x3daf9876	0.085740015
89	0xbe03ae6d	-0.12859507
90	0xbda45b65	-0.080252446
91	0xbc519e2d	-0.01279406
92	0xbe32b74c	-0.17452735
93	0xbdb2a18a	-0.087222174
94	0x3e113a8d	0.14182492
95	0x3d74f6c7	0.059805658
96	0xbdd3c1ac	-0.10339674
97	0x3e04bca2	0.12962583
98	0x3c93bb6e	0.01803371
99	0xbdca6bc6	-0.098838374

bias_hh_l0 f4 [100]
0	0xbdce4ef8	-0.10073656
1	0x3d81cdb6	0.063380644
2	0x3e2493c9	0.16072
3	0x3d8da7ca	0.06916769
4	0x3dce4d52	0.100733414
5	0x3ddfa396	0.109198734
6	0xbe2155de	-0.15755412
7	0xbcebf0d7	-0.028801365
8	0xbe14fc3c	-0.14549345
9	0xbd5c1ab1	-0.053736392
10	0xbe360710	-0.17776132
11	0x3cf213bc	0.029550426
12	0xbd47269c	-0.048620805
13	0x3def6894	0.116898686
14	0xbe03a969	-0.12857594
15	0x3dd1c99b	0.10243531
16	0xbd090faa	-0.033462204
17	0xbb649350	-0.0034877844
18	0x3b4f37b9	0.0031618907
19	0xbe19da97	-0.15024792
20	0xbd8a19af	-0.0674318
21	0x3d8baf1b	0.06820508
22	0x3c9d2265	0.01918144
23	0xbd6ef327	-0.058337357
24	0xbe0eca87	-0.13944446
25	0xbda2943c	-0.0793843
26	0x3deb3fbe	0.11486767
27	0x3d16de99	0.03683338
28	0x3debcdea	0.11513884
29	0x3d5f5bb2	0.054530807
30	0xbca94ba0	-0.020665944
31	0xbe39e463	-0.18153529
32	0xbdf37023	-0.11886623
33	0xbd560411	-0.05224997
34	0xbcbae45b	-0.022813966
35	0xbd0bc445	-0.034122724
36	0x3bb35b13	0.0054735034
37	0xbdd29b3f	-0.10283517
38	0xbd12525f	-0.035723086
39	0xbcb065a1	-0.021532835
40	0x3e475c47	0.19468795
41	0xbde998bf	-0.11406087
42	0x3e2c6e30	0.16838908
43	0xbc1f9ae2	-0.009741517
44	0x3db0db47	0.08635574
45	0x3e096f32	0.13421324
46	0xbd24d3a7	-0.04024091
47	0xbd0ee4f0	-0.0348863
48	0x3c280f6b	0.010257582
49	0x3d9be3f1	0.07611836
50	0xbc82c719	-0.015964078
51	0x3cc73609	0.024317758
52	0x3e0a3db0	0.13500094
53	0xbdaa1a84	-0.08305839
54	0x3d1f5476	0.038898908
55	0xbdb72f9b	-0.08944627
56	0xbc691ded	-0.014228326
57	0x3e0010b6	0.12506375
58	0xbd6baf36	-0.05754014
59	0x3dfacc9a	0.12246056
60	0xbc0c79a5	-0.008573924
61	0x3dfae3a1	0.12250448
62	0xbdbd5404	-0.0924454
63	0x3d36639e	0.044528596
64	0xbe39b377	-0.18134867
65	0x3d9b6ce8	0.075891316
66	0xbe2a5773	-0.16634922
67	0x3e1267ac	0.1429736
68	0x3e1cd449	0.15315355
69	0xbd87d86a	-0.066330746
70	0x3cea9dda	0.028639723
71	0x3ce8a011	0.028396638
72	0x3e16f358	0.14741266
73	0x3e0de16c	0.13855523
74	0x3da9786d	0.082749225
75	0x3d51fae4	0.05126466
76	0x3e10bc6f	0.14134382
77	0x3ac896e5	0.0015303759
78	0x3dfe5ca3	0.12420013
79	0x3e0f7493	0.14009313
80	0xbdeb3ae2	-0.114858404
81	0xbe190a46	-0.14945325
82	0xbdf53806	-0.11973576
83	0x3e1be055	0.15222295
84	0xbc0e1864	-0.008672807
85	0x3d820915	0.063493885
86	0x3c57b247	0.013165063
87	0xbe479192	-0.19489124
88	0x3daed9d2	0.0853764
89	0x3e0c7dcf	0.13719867
90	0x3df1c45c	0.11805031
91	0xbd32de9f	-0.04366934
92	0xbde9680d	-0.11396799
93	0xbc4218c5	-0.011846726
94	0x3d952591	0.07282556
95	0xbddbe4b9	-0.10736985
96	0xbddd5e6c	-0.10809025
97	0x3d2cc531	0.042180244
98	0x3da4d38a	0.080481604
99	0xbe43dd62	-0.1912742

weight f4 [52, 25]
0	0xbda5c3a0	-0.08093953
1	0xbd0ed3b4	-0.034869865
2	0x3d28970c	0.041159675
3	0xbdf9f88a	-0.12205608
4	0xbe0df638	-0.13863456
5	0x3e1950d9	0.14972247
6	0x3e41766a	0.18892828
7	0xbb908571	-0.0044104387
8	0x3d440d5d	0.047864307
9	0x3dbb3d22	0.091425195
10	0xbdb4eee0	-0.08834624
11	0x3e08698b	0.13321511
12	0x3e1684b5	0.14699061
13	0xbdaf8df7	-0.085719995
14	0xbdc8855c	-0.09791061
15	0xbe422dd5	-0.18962796
16	0xbe0b786a	-0.13620153
17	0xbe3c51a5	-0.1839052
18	0xbbaae063	-0.0052147373
19	0x3ba8be4c	0.0051496383
20	0xbe47e20f	-0.19519828
21	0xbde7fa9b	-0.11327096
22	0x3df64220	0.12024331
23	0x3c396445	0.01131541
24	0xbe07d31f	-0.1326413
25	0xbe1d12d8	-0.1533922
26	0x3e242353	0.160291
27	0xbda02b31	-0.07820738
28	0x3dae9a74	0.08525553
29	0x3d484af4	0.048899606
30	0x3cedda22	0.029034678
31	0xbddf6c72	-0.10909356
32	0x3d854da1	0.06508947
33	0xbd0bf047	-0.034164693
34	0x3d831a30	0.06401479
35	0xbc830b65	-0.015996644
36	0x3d8ddd2c	0.06926951
37	0xbd514777	-0.051093545
38	0x3df472b3	0.1193594
39	0xbe28fcd5	-0.16502698
40	0xbd452430	-0.048130214
41	0xbd0d0207	-0.03442576
42	0xbe24a3cf	-0.16078113
43	0xbd0dd518	-0.03462705
44	0x3e140745	0.14455898
45	0x3d9f30a8	0.07772952
46	0x3e10f0cf	0.14154361
47	0x3e5515f7	0.2080916
48	0xbd503abd	-0.050837267
49	0x3e1ec979	0.15506543
50	0xbc9e1cb2	-0.019300792
51	0xbde079d1	-0.10960735
52	0xbe26c4fb	-0.1628608
53	0xbd0347d5	-0.032050926
54	0x3d4d5449	0.05012921
55	0xbcd7c1f3	-0.0263376
56	0xbd6cb586	-0.0577903
57	0x3dda823f	0.10669374
58	0x3e2d2576	0.16908821
59	0x3db750a9	0.089509316
60	0x3e26e7db	0.16299383
61	0xb96078f0	-0.00021407357
62	0x3e456c84	0.19279677
63	0x3d2f274e	0.042762093
64	0x3e37f7ee	0.17965671
65	0xbdac3dd6	-0.08410232
66	0xbe371588	-0.17879307
67	0xbe2269f1	-0.15860726
68	0xbd00e91e	-0.031472318
69	0x3e184a0d	0.14871998
70	0x3e49f09d	0.19720693
71	0x3d268580	0.04065466
72	0xbde5a5ab	-0.11213239
73	0x3e39c361	0.18140937
74	0xbd88416a	-0.06653102
75	0x3e46b461	0.19404747
76	0x3d809392	0.06278147
77	0xbd88c65c	-0.06678459
78	0xbdc2b41e	-0.09507011
79	0xbe22c0d2	-0.15893868
80	0x3d3aa2d4	0.04556544
81	0xbcc7c1ac	-0.024384342
82	0xbe19ab09	-0.15006651
83	0x3dcf7dec	0.101314396
84	0xbe3a5f22	-0.18200353
85	0x3e246382	0.16053584
86	0x3c25b2da	0.010113442
87	0x3dd02aa3	0.10164382
88	0x3e3aeb6f	0.18253873
89	0xbdc57e86	-0.09643273
90	0x3e0a8e24	0.13530785
91	0x3e1e2305	0.15443046
92	0x3d793f0e	0.06085115
93	0xbd0fa31a	-0.035067655
94	0xbe1d1b4a	-0.15342441
95	0xbced10ff	-0.028938768
96	0xbe2312e0	-0.15925169
97	0x3d26a1a9	0.040681515
98	0xbd5c10cb	-0.053726953
99	0xbbd437c6	-0.0064763753
100	0x3dc31ddc	0.095271796
101	0x3d8295ae	0.063762054
102	0x3c35ef5a	0.011104429
103	0xbd2cb098	-0.0421606
104	0xbd5963f0	-0.053073823
105	0x3e253b2e	0.16135857
106	0xbe052012	-0.13000515
107	0xbdd90a13	-0.10597625
108	0x3cc49eab	0.02400144
109	0x3da50e09	0.080593176
110	0xbe38b510	-0.1803782
111	0xbe1e13d6	-0.15437254
112	0x3e220545	0.15822323
113	0xbc9c6eb1	-0.01909575
114	0xbe0ecdd9	-0.13945712
115	0x3e2118f9	0.15732183
116	0x3df267e0	0.11836219
117	0x3e3f6033	0.18689041
118	0xbd604618	-0.054754347
119	0x3d8da7d8	0.06916779
120	0xbdba13fd	-0.09085844
121	0x3e2705f9	0.16310872
122	0x3d314d2a	0.04328648
123	0x3e3ed2cc	0.186351
124	0x3e16b544	0.14717585
125	0xbe194eb1	-0.14971425
126	0xbda2e5c4	-0.079539806
127	0xbb030af2	-0.0019995538
128	0xbe21b249	-0.15790667
129	0x3e2ae6f9	0.16689672
130	0x3e3de9c4	0.18546206
131	0xbd876dd4	-0.06612745
132	0x3d814e3e	0.06313752
133	0xbd9f9a38	-0.07793087
134	0xbe1d3158	-0.15350854
135	0xbd7bb78a	-0.061454333
136	0x3e36dede	0.17858455
137	0xbe202a15	-0.15641053
138	0x3c03b166	0.008037901
139	0xbe084b22	-0.13309911
140	0x3e1544d8	0.14577043
141	0x3e2ecd4b	0.170705
142	0xbe2f2d91	-0.17107226
143	0x3e192e86	0.14959154
144	0xbe38d0bc	-0.18048376
145	0xbd9dda2d	-0.07707629
146	0xbc2fb440	-0.010724127
147	0xbe32456a	-0.17409292
148	0x3cac136d	0.021005357
149	0x3d9916af	0.0747503
150	0x3e262bea	0.1622769
151	0x3cc9b69a	0.024623204
152	0x3e180905	0.1484719
153	0xbd8e1da7	-0.069392495
154	0xbe322746	-0.17397794
155	0x3e102352	0.14075974
156	0xbdd00bcc	-0.101585
157	0xbdfbc27c	-0.12292954
158	0x3b422b2c	0.0029627783
159	0x3d605204	0.054765716
160	0xbd832a8a	-0.06404598
161	0x3d28b9f4	0.041192964
162	0x3de9e77c	0.11421105
163	0x3e3c1bb6	0.18369946
164	0x3e3fe4d6	0.18739638
165	0x3e507c17	0.20359837
166	0xbe29bc04	-0.16575629
167	0xbdf46b84	-0.119345695
168	0xbdf9bcea	-0.121942356
169	0x3e14c942	0.14529899
170	0x3de909d7	0.1137883
171	0x3d31355d	0.04326378
172	0xbe4e9737	-0.20174871
173	0x3dc10f49	0.094267435
174	0xbd5340c2	-0.05157543
175	0xbe29f341	-0.165967
176	0xbda36deb	-0.079799496
177	0xbd96c675	-0.073620714
178	0x3b896353	0.0041927486
179	0x3d9950cb	0.07486113
180	0xbdef95f5	-0.11698524
181	0x3dff5579	0.124674745
182	0xbdd87f39	-0.10571141
183	0x3e37498a	0.17899147
184	0xbe558dc3	-0.20854859
185	0xbe2a1df1	-0.16612984
186	0x3d9441b7	0.072390966
187	0xbda51aaa	-0.080617264
188	0xbdfcb818	-0.123398006
189	0xbd816a51	-0.06319106
190	0xbd968207	-0.073490195
191	0x3d66347c	0.056202397
192	0x3d469617	0.04848298
193	0xbdc64d74	-0.09682742
194	0xbdebdddb	-0.11516925
195	0x3e04c96b	0.1296746
196	0xbe177ad4	-0.14792949
197	0x3d2c65f3	0.042089414
198	0x3de1540b	0.11002358
199	0x3e292bc9	0.16520609
200	0xbdf09ce5	-0.11748675
201	0xbe0eb4f9	-0.13936223
202	0x3e15b638	0.14620292
203	0xbe2a2351	-0.16615035
204	0xbdc61923	-0.09672763
205	0xbddfd297	-0.10928839
206	0xbd1622a3	-0.036654126
207	0xbda82e88	-0.08212
208	0xbdb67102	-0.08908273
209	0x3b9b84bf	0.004746049
210	0xbd1c39f7	-0.038141217
211	0x3b172697	0.0023063773
212	0xbd05c39d	-0.032657254
213	0x3e0f5cc4	0.14000231
214	0xbe12d560	-0.14339209
215	0xbb7f96e2	-0.0038999845
216	0x3d2ebe3d	0.042661894
217	0xbdf8bf4e	-0.121458635
218	0x3df6df21	0.12054277
219	0x3e3dc03e	0.18530366
220	0xbda6b997	-0.08140867
221	0xbdbeb20c	-0.093113035
222	0x3dcc792d	0.0998405
223	0xbdb2a428	-0.087227166
224	0x3dcf8022	0.10131861
225	0xbd3990ee	-0.04530423
226	0xbe3472b9	-0.17621888
227	0x3e0635c6	0.1310645
228	0xbd94d5eb	-0.07267364
229	0xbd32ecda	-0.04368291
230	0xbdb87183	-0.09006026
231	0xbc2edc60	-0.010672659
232	0x3d05ae79	0.032637093
233	0x3d159a31	0.036524
234	0xbd9f3465	-0.07773665
235	0xbd6e792f	-0.05822104
236	0x3db57e20	0.08861947
237	0x3d20061d	0.03906833
238	0x3e0649e2	0.13114122
239	0x3da1d428	0.07901794
240	0xbe038503	-0.12843709
241	0xbe3f49af	-0.18680452
242	0x3e0b3475	0.1359423
243	0xbd4ede5a	-0.05050502
244	0x3e2b7ea5	0.1674753
245	0xbdba41af	-0.090945594
246	0xbca59e82	-0.020217184
247	0xbd54cb3b	-0.05195163
248	0xbd68a934	-0.05680199
249	0x3e044786	0.12917909
250	0x3cc3184d	0.023815298
251	0xbe126d65	-0.14299543
252	0xbe168c75	-0.14702018
253	0x3c2d72f0	0.010586485
254	0x3dc5ed19	0.096643634
255	0x3dc1a240	0.09454775

bias f4 [52]
0	0x3d0eace9	0.03483287
1	0x3d937c00	0.072013855
2	0x3d09116f	0.03346389
3	0xbdab84b6	-0.08374922
4	0xbdffa940	-0.12483454
5	0xbd883ea8	-0.06652576
6	0xbd107162	-0.03526438
7	0xbd901891	-0.07035936
8	0xbe028364	-0.12745434
9	0xbe0a4a12	-0.13504818
10	0xbd69a649	-0.057043348
11	0x3dc2d42e	0.09513126
12	0xbe3baf5b	-0.18328612
13	0xbce9dcf5	-0.028547743
14	0xbdb4e9eb	-0.08833679
15	0x3e3d909f	0.185122
16	0xbe1d6484	-0.15370375
17	0x3e2c9bb3	0.1685627
18	0x3d748e8e	0.059706263
19	0x3db74dd1	0.08950389
20	0xbc2226fe	-0.009896992
21	0x3d8f69ff	0.07002639
22	0x3e38f838	0.18063438
23	0x3dc4d7f3	0.096115015
24	0x3d84a648	0.06477028
25	0xba2d14be	-0.0006602517
26	0x3e06a356	0.13148245
27	0xbb841274	-0.00403052
28	0xbd1c6bf2	-0.038188882
29	0xbd733368	-0.059375197
30	0x3bee32d2	0.007269242
31	0xbe124ca0	-0.14287043
32	0x3d7124dd	0.058873046
33	0x3e2b0c12	0.16703823
34	0x3ddf88ee	0.10914789
35	0xbdafdd79	-0.085871644
36	0xbd903301	-0.07040978
37	0xbdbedb3b	-0.09319159
38	0x3ca95513	0.02067045
39	0xbd81a79b	-0.06330796
40	0x3d787f48	0.06066826
41	0x3da06b85	0.07833008
42	0xbdb15656	-0.086590454
43	0x3e3a1028	0.18170226
44	0xbe30e828	-0.1727606
45	0x3dae00f8	0.084962785
46	0xbda857fa	-0.08219905
47	0x3e0e6934	0.1390732
48	0xbe0b1ace	-0.13584444
49	0x3d7c678e	0.061622195
50	0xbdd22b99	-0.10262222
51	0xbdc2fd49	-0.095209666
