code/Website Demonstration Code/model/model_demo.pth (torch, 105323 bytes, 10 tensors)

weight_ih_l0 f4 [100, 52]
000000 8c a8 f7 3c b1 d4 11 3e af f2 19 be 44 9e 9e bd
       0.030231737 0.14241292 -0.15033983 -0.077450305
000010 16 10 13 be ce 6b 28 be 6b d4 94 3c 87 e7 ea bc
       -0.14361605 -0.16447374 0.018167695 -0.028674854
000020 f1 60 4f bd c7 e5 d8 3c fe e3 be bd 9c a3 7e bd
       -0.05062956 0.026476754 -0.0932083 -0.06216775
000030 aa 8c 17 3e ec 20 2a bd 5e f2 a9 bd ff ff f6 3d
       0.14799753 -0.041535303 -0.08298181 0.12060546
000040 5d 30 49 3c e0 8c 03 be 1a b6 09 3e ac 47 5b be
       0.012279597 -0.12846708 0.13448372 -0.2141406
000050 29 60 7b 3c 1e b4 26 3e 33 40 bb 3d 69 36 84 bb
       0.015342751 0.16279647 0.091431044 -0.0040348065
000060 09 f7 66 bb 7e 94 9f 3d 7b 6b fa bc 91 97 e0 3d
       -0.003524246 0.077919945 -0.030568829 0.10966409
000070 72 3c af bb 9f e8 2e be a2 78 04 be ba 61 06 bd
       -0.005347782 -0.17080925 -0.12936643 -0.032808043
000080 f1 85 24 3d 10 bc 0b be 4d 0d c1 bd 28 f4 73 bc
       0.0401668 -0.13645959 -0.09426365 -0.014889754
000090 a4 35 86 3d 64 1b 26 be a9 14 8f bc 8d ea ad 3d
       0.065532 -0.16221386 -0.017465906 0.08492003
0000a0 7d e7 08 be b2 9d 00 bd 92 02 2e be 23 29 4d bd
       -0.13369556 -0.03140039 -0.16993168 -0.05008806
0000b0 36 09 36 bc db f9 50 3d be 37 00 3e 81 f5 9d 3d
       -0.0111105945 0.05101953 0.12521264 0.07712842
0000c0 1d fc 28 3e d2 8d 54 3d d4 73 09 be fc 49 32 bb
       0.16502424 0.051893063 -0.13423091 -0.0027204743
0000d0 38 27 86 bd 8d 59 dd bd 47 40 80 3d 6b 38 03 be
       -0.06550449 -0.10808096 0.0626226 -0.1281449
0000e0 04 10 b4 bd 26 53 b0 3d a6 9e 4a 3d 13 ae 4f 3e
       -0.08792117 0.08609609 0.049467705 0.20281248
0000f0 8d 2b bc bd 55 dc 1e ba 5b ca 90 bd 66 8a b5 3c
       -0.09187994 -0.0006060054 -0.07069846 0.02216072
000100 32 9c e0 bd 6b c7 7a 3d 6d 84 d8 bd ce 7f 9b bd
       -0.10967292 0.061225336 -0.10572133 -0.07592736
000110 e9 b8 c0 3c 7a 2d c2 ba d9 55 f7 bd 96 56 87 bd
       0.023525672 -0.0014814578 -0.12076921 -0.06608312
000120 72 22 a2 be 27 12 5b 3d 06 77 02 3e 36 0b 0d 3d
       -0.31666905 0.05348411 0.12740716 0.03443452
000130 bd 52 80 bd 8d 3b 2e 3c 12 5c 45 3d 62 25 a7 bb
       -0.06265781 0.010634315 0.04818351 -0.005100892
000140 62 d3 35 3e 2f 70 c9 bd 23 44 a7 3c a4 08 97 3d
       0.17756417 -0.098358504 0.020418232 0.07374695
000150 d7 0b 5d bd b6 c3 58 be 37 43 53 bd 60 c4 99 bd
       -0.05396637 -0.21168408 -0.051577773 -0.07508159
000160 3c f2 82 bd e4 ec 34 3e 13 6e 91 bd c5 bd a7 3c
       -0.06393859 0.17668492 -0.07101073 0.020476231
000170 51 b4 04 3d 77 e4 2a be c3 b4 d2 3b ae 97 f8 3d
       0.032398526 -0.16688715 0.00643024 0.121383056
000180 48 2e 9d bd 60 1a cd bd 6b 4c 35 3d 28 3d 99 3d
       -0.07674843 -0.10014796 0.04426233 0.07482368
000190 56 f8 c1 bc df 5b dc bd dd c2 9d 3d a1 8d e3 3d
       -0.023677986 -0.107597105 0.07703183 0.11110998
0001a0 91 22 d2 3d 02 87 ab 3d 44 87 64 bd ff 14 c0 3c
       0.10260499 0.0837536 -0.05579306 0.023447512
0001b0 18 e8 86 bc 5c 03 98 3d a6 56 af 3c da 0d 34 bd
       -0.016468093 0.07422516 0.021403622 -0.043958522
0001c0 78 b3 a2 bb 3c 46 9d bd 45 54 07 3d d1 fb 74 bc
       -0.004965242 -0.07679412 0.03303935 -0.014952616
0001d0 c7 ef 45 bd c4 e0 f5 bc af c7 fe 3c b8 51 31 3e
       -0.048324373 -0.030014403 0.031101076 0.1731633
0001e0 b8 2c 47 bc f6 95 30 3d 4f d5 c5 bd 53 5a 33 bc
       -0.012156658 0.043111764 -0.09659826 -0.010946828
0001f0 67 94 17 3d e0 d8 d6 3c 48 1b 64 3d 1d 6c f1 ba
       0.037006762 0.026226461 0.05569008 -0.0018419061
000200 38 3b d0 bc 2b c3 8b 3c 00 ce c4 bb 30 c6 18 bd
       -0.025418863 0.017060837 -0.0060060024 -0.03729838
000210 96 8b 93 3c 53 af 8b 3d 7b 5e 4a bc e5 a7 34 3c
       0.018010896 0.0682055 -0.012351627 0.011026357
000220 4b 72 23 3d c3 6f 5a bd 5a ea b5 bc fc a0 c7 bd
       0.03990392 -0.05332924 -0.022206474 -0.09747502
000230 65 8f 15 3d 2b b9 90 bc 20 f9 25 3d 63 56 c0 bd
       0.036513705 -0.01766642 0.040520787 -0.09391477
000240 86 03 09 3c 8d 01 da 3d d3 94 58 3d 7b af 07 3e
       0.008362656 0.10644827 0.052876305 0.13250534
000250 a7 ea 3f bd 72 9f d6 3d 24 d6 13 be 09 ae 1b 3b
       -0.04685464 0.104796305 -0.14437157 0.0023754856
000260 5b f7 03 bd 42 71 d2 3d b3 32 49 bd c3 04 32 bd
       -0.03221832 0.102755085 -0.049120616 -0.043461572
000270 2a ec 86 3c 7d 28 4b bc f3 1a 67 3e 02 de d7 3d
       0.016470034 -0.01239979 0.22568874 0.105403915
000280 2d ac 7f 3b 4b 63 20 bd c9 1e 2f 3e 73 51 b8 bd
       0.0039012537 -0.039157193 0.17101587 -0.0899991
000290 9b 69 03 be 27 34 87 3c 66 95 1e 3e 4e 9f 7a bd
       -0.12833254 0.01650436 0.15486678 -0.06118708
0002a0 2e 9d f4 bd 43 de 76 bd 07 12 94 3d 68 1d de 3d
       -0.11944042 -0.06027056 0.07230001 0.108454525
0002b0 f2 ef 3e 3b c7 e7 67 3c 3a db 95 bd 6c 44 8e bc
       0.0029134718 0.014154381 -0.07317205 -0.01736661
0002c0 21 50 69 bd 1a df 1f be 50 58 59 bd ac c2 26 3d
       -0.056961183 -0.1561245 -0.053062737 0.040712997
0002d0 9a 23 0f 3e fb f3 23 3d 0e 07 ed 3d ff 8f b6 bd
       0.13978425 0.0400276 0.11573611 -0.08914184
0002e0 b0 98 6c 3d 47 e2 7b bd f5 78 f5 bd 17 f2 89 be
       0.0577628 -0.06149509 -0.11985961 -0.26942512
0002f0 a4 e6 25 3d 7d 11 89 bd e4 d8 1f 3d f6 77 79 bd
       0.04050316 -0.06692789 0.039025202 -0.06090542
000300 3c ac c9 3d fe ef 86 3d c5 8c 98 3c 53 8c 15 bd
       0.09847304 0.065887436 0.018621812 -0.036510777
000310 7f 57 a1 3d 86 9e f9 3c 69 13 c6 3d 51 c8 ae 3e
       0.07878017 0.030471098 0.09671671 0.34137204
000320 2f 92 75 3b 35 61 29 3d 7c 69 26 3e f2 e3 a7 bd
       0.0037471165 0.04135247 0.16251177 -0.08197774
000330 70 d0 12 be c0 0e e2 3c 42 31 0f 3e e2 66 9c 3e
       -0.14337325 0.027594924 0.13983634 0.30547243
000340 4f 8a 55 3e b7 c7 88 bd e0 f8 d9 bc ab 1c 0e 3e
       0.20853542 -0.066787176 -0.02660793 0.13878123
000350 5d f0 b7 3d 5f d2 69 bd c5 3d 37 3e 62 a6 a0 bd
       0.089813925 -0.05708539 0.17894657 -0.07844235
000360 5d c2 1c be b7 fe 91 3d 29 ea eb 3c d5 8e a6 3c
       -0.15308519 0.07128661 0.02879818 0.02033178
000370 5a 3b 3b be 82 29 4b bd 64 50 72 3c 25 d7 9b bd
       -0.1828436 -0.04960013 0.014789674 -0.07609395
000380 03 e5 ad 3e ea 50 94 3b 3c c1 d3 3b 1a 78 c7 bd
       0.33963785 0.0045262473 0.0064622443 -0.097397044
000390 d5 4a 58 be 09 72 ae bd 9d 82 64 3d 3a a0 7a 3d
       -0.21122296 -0.08517844 0.055788625 0.06118796
0003a0 c4 34 c6 bd e3 4b 47 3e b8 60 c5 be 39 da 93 bc
       -0.09678033 0.19462542 -0.38550353 -0.018048393
0003b0 6b 77 f5 3d 94 ec 70 bb 3d 6b c2 bd b2 ea 02 be
       0.11985668 -0.0036762105 -0.0949311 -0.12784842
0003c0 4c 12 9d 3d f1 1a c3 bd 91 e9 52 3e 7c 41 4a 3d
       0.076695055 -0.09526623 0.20596911 0.049378857
0003d0 3f ac a9 bd 3e b6 60 3e 1f 3d ef 3d 0b 28 52 bd
       -0.082848065 0.2194452 0.1168158 -0.05130772
0003e0 b2 45 95 3c b4 73 bd bd d8 5a 99 3b e9 69 5b 3d
       0.01822171 -0.09250584 0.004680019 0.0535678
0003f0 06 05 0e be a4 b9 aa 3d 4d 59 59 3d 02 81 9a bd
       -0.13869104 0.083361894 0.05306368 -0.075441375

weight_hh_l0 f4 [100, 25]
000000 a0 6f 4f 3e 5d 83 ad 3e b9 b1 1c 3e f2 a5 13 be
       0.20257425 0.33889285 0.15302171 -0.14418772
000010 c2 4c 8b 3e 4c d4 54 3d 42 9e 43 be b1 52 9a 3d
       0.27207 0.051960275 -0.1910334 0.075353034
000020 39 32 77 3e 13 fe c3 3d 6f 8f db bc 46 a0 ad 3e
       0.24140252 0.09569945 -0.026801793 0.3391134
000030 ee 04 09 bf 3e de 35 3f 0f 61 b5 3e 60 9d 19 be
       -0.5352315 0.7104224 0.35425612 -0.1500144
000040 23 1a c9 3d 60 ab 29 3e e6 6f 36 3e ba 41 fc be
       0.09819438 0.1656928 0.17816123 -0.49268895
000050 15 e7 18 bd 89 95 a4 3e 66 ae 9e 3e 95 01 dc bd
       -0.037329752 0.32145336 0.3099243 -0.10742489
000060 33 a5 29 be 3b ec e9 be ec b2 fb 3c 41 48 fb 3e
       -0.16566925 -0.45688042 0.030724965 0.49078563
000070 ff 2d 49 bf ce 21 c0 be ee 93 45 bf 1b aa c6 bc
       -0.7858581 -0.3752579 -0.7717885 -0.024251034
000080 26 ef e9 3e f5 3e e9 3e 5b 13 b5 bd c8 09 10 bf
       0.45690268 0.45555845 -0.088415824 -0.56264925
000090 4a 20 a3 be 7e 94 10 bf 5e 56 88 3e 79 ae a6 3d
       -0.31860572 -0.5647658 0.26628393 0.08138747
0000a0 12 f4 20 bf b1 e2 0d 3f 76 10 92 3e f3 3f c2 3e
       -0.6287242 0.5542403 0.28528184 0.37939414
0000b0 ad 99 31 bf 3f f5 90 3e 3b 29 1b be b5 11 4d 3f
       -0.69375116 0.28312108 -0.15152447 0.80105144
0000c0 df 2d ee be 13 ca da 3d e1 0a 75 be b6 41 59 bd
       -0.46519372 0.10683074 -0.23929931 -0.053041182
0000d0 dc d4 e8 be 4b 33 ef be c3 cf ab bd b3 28 60 be
       -0.454749 -0.4671882 -0.08389237 -0.21890526
0000e0 d0 70 bc 3a c7 49 47 3d 6b 0c 02 3e 53 71 a3 be
       0.0014376882 0.048654344 0.1270005 -0.31922397
0000f0 f3 e3 20 3e 90 d2 80 be 5e ab 72 be 1f 62 37 3e
       0.15711956 -0.25160646 -0.23698184 0.17908524
000100 bc 8c 95 3e ab 27 8b bc 15 c5 ad 3d f4 e9 14 3c
       0.29208934 -0.016986689 0.08484856 0.009088982
000110 e7 aa 1b 3e e3 95 fe bb d0 bd b1 bd 4b e5 00 be
       0.15201913 -0.0077693327 -0.08678782 -0.12587468
000120 31 c9 d0 3e c6 8f a3 be a0 3c 67 be 4f 8c 3d bf
       0.40778497 -0.31945628 -0.2258172 -0.7404222
000130 6e 7b 70 be a3 29 d6 3e f0 67 68 3e e0 ca 5d be
       -0.23484585 0.4182864 0.22695899 -0.21659422
000140 85 b3 1e bf 75 cc 74 3d fe da 0d 3e 16 8e 32 be
       -0.61992675 0.059765298 0.1385307 -0.17437014
000150 b7 76 4c be 70 71 50 be 87 ad a7 be 05 bf 31 bf
       -0.19967161 -0.20355773 -0.32749578 -0.694321
000160 ac f8 04 3f df bd db be 3b 07 e0 be fc 41 da 3e
       0.51941943 -0.42918298 -0.43755516 0.42628467
000170 1b bb eb 3e 9c 02 83 3e f0 d6 a8 be 0d bc 51 3e
       0.46041188 0.25587928 -0.32976484 0.20481892
000180 eb ab 87 bd c0 18 b9 3e eb b8 35 be 99 2e ac 3e
       -0.066245876 0.36151695 -0.17746322 0.336293
000190 f7 45 16 bf 89 4a 89 be a0 3b f3 3e f4 b0 f5 be
       -0.5870051 -0.26814678 0.47506428 -0.47986567
0001a0 7b 10 03 3f 29 91 f0 be 02 60 3f 3d d8 f9 13 3f
       0.5119702 -0.46985748 0.04672242 0.57803106
0001b0 df d2 eb 3e 8a 29 c3 be 43 fa 19 bf ef 75 d4 3c
       0.4605932 -0.3811763 -0.60147494 0.025935141
0001c0 a0 b4 66 bf fa 3a 26 3f 2b 3a cb 3e ec 7c ae be
       -0.9011936 0.6493374 0.39692816 -0.34079683
0001d0 65 af 59 3f 39 63 09 3f c6 32 3d 3e 4d 56 0f bf
       0.85033256 0.53667027 0.184764 -0.5599106
0001e0 96 5e 0e 3e 5f a2 79 3e bd 1b 0a 3f f9 af d1 be
       0.13903269 0.24378346 0.53948575 -0.4095457
0001f0 ba 8d d8 3e 09 44 8a 3e a1 42 e6 3d 9d bc 56 3e
       0.4229563 0.27005032 0.11243177 0.20970388
000200 dd 8e 48 bd 89 b3 6a 3e af b3 e1 3e f4 10 5d 3e
       -0.04896437 0.2292005 0.440824 0.21588498
000210 ce 9f e8 3d 8c b6 af 3e 83 15 98 be fa 6a fd 3c
       0.11358605 0.3431896 -0.29703912 0.0309348
000220 e4 71 0b 3f 6d 6b fd be 96 6a 6d 3d c3 24 49 3e
       0.5447066 -0.49496022 0.057962976 0.1964293
000230 49 94 11 bf bf 5b 13 3f 7b b0 1d 3e 10 bc 5d 3e
       -0.5686689 0.5756187 0.15399353 0.21653771
000240 5c 31 a6 bd 06 a3 31 be 94 d7 25 3e ad 79 9f 3e
       -0.08114883 -0.17347345 0.16195518 0.3114752
000250 4c c0 52 be 45 f9 1d 3e ec e4 91 be 47 a0 af be
       -0.20581168 0.1542712 -0.28494966 -0.3430197
000260 31 5b 05 3f 82 1e 8c be c1 8a 3d bf 73 02 14 bf
       0.5209227 -0.27367026 -0.74039847 -0.5781624
000270 df 9e c5 be 10 4f 04 3f 80 87 4b 3e 79 2f f4 be
       -0.38597772 0.5168314 0.19875908 -0.4769247
000280 0e ef a3 be 5a 75 8a bd c3 86 5d bf 1e 6c c1 3e
       -0.32018322 -0.06760664 -0.86533755 0.377778
000290 7a 44 a1 3c 59 91 08 bf 45 1f 0c 3f fd 23 25 3e
       0.019685972 -0.5334678 0.54735214 0.1612701
0002a0 7c 5d 58 3e 65 20 f2 be 86 29 b8 3e ad 9f 15 bb
       0.21129411 -0.4729034 0.3596918 -0.002283077
0002b0 81 9b 4d 3f 88 5d e4 bd f4 29 df 3e 24 ee 48 bf
       0.80315405 -0.11150652 0.43586695 -0.78488374
0002c0 06 27 8c 3d 60 db 20 3f 6f 13 32 bf 29 a0 c2 be
       0.06843381 0.6283474 -0.69560903 -0.38012818
0002d0 59 94 52 bf 71 ff bc 3e 7f 7c d0 3e 80 52 01 3f
       -0.8225761 0.36913636 0.40719983 0.5051651
0002e0 71 e5 9f 3e 07 d8 06 bf 5f 97 be bd 13 e5 17 bf
       0.31229737 -0.5267338 -0.093062155 -0.59333915
0002f0 79 db 95 3e 2d ab 45 3f 14 1d 3b bf 99 d8 c2 3e
       0.29269007 0.7721432 -0.73091245 0.38055876
000300 32 c3 3b 3f e1 8c ed 3e 08 a6 2a bf 60 06 a7 3d
       0.7334472 0.46396545 -0.66659594 0.08155513
000310 f0 b6 35 3e 59 e0 ce 3e 8c 25 85 be ac 01 6d 3d
       0.17745566 0.4040554 -0.26005208 0.057862923
000320 7d 7b 23 bf 84 68 ad be 68 25 af 3e 8c ab 8c be
       -0.63860303 -0.33868802 0.34208226 -0.2747463
000330 e7 22 ae bd 63 5a d3 be 9f 28 b9 3d 09 33 b8 3e
       -0.08502751 -0.41279897 0.09040951 0.35976437
000340 98 4a 4a bf dc 96 21 be 0f a9 9c be dc 4d ad 3d
       -0.7902007 -0.15780205 -0.3059773 0.08462116
000350 74 7d f9 be 08 02 15 3f 65 ff 59 3e 6b c5 94 be
       -0.48728526 0.58206224 0.21288832 -0.29056868
000360 76 3a e4 3e ca cc 03 3f 5a 19 1d 3f 6c 77 36 bf
       0.44575852 0.5148436 0.6136681 -0.71275973
000370 91 95 b5 3d 07 1a 35 be 73 8d b5 3e fe e3 ba be
       0.08866418 -0.1768571 0.3545948 -0.3650207
000380 bf 90 4e 3e 66 98 49 bf 03 09 94 3b 2f ac d5 3e
       0.20172404 -0.78748167 0.004517676 0.41732928
000390 08 d7 0f bf b7 fb 05 bf 6c 3f 1f bf 5e 7a a7 3e
       -0.56187487 -0.5233721 -0.6220615 0.32710546
0003a0 d7 eb b4 3e e1 eb 04 3f 6f 14 44 3f 57 54 ac be
       0.35336182 0.5192242 0.7659368 -0.33658096
0003b0 dd 9b 92 3d 82 4c 35 bf 6d 50 28 3f 82 60 32 3f
       0.07158635 -0.70819867 0.6574772 0.6967851
0003c0 30 3d ea be 66 21 1c 3f 94 af 04 3f b6 b6 0e 3f
       -0.45749807 0.6098846 0.5183041 0.55747545
0003d0 bd b7 89 bf 1f 90 81 3e 16 e4 b1 3d 4c bb 08 3f
       -1.0759197 0.25305268 0.08686082 0.5341079
0003e0 35 51 73 be 1d c0 14 3e a9 06 ef be 46 d3 cd be
       -0.23761447 0.1452641 -0.4668477 -0.4020025
0003f0 e4 3e 06 3f 16 37 00 bf 57 9f 4a be 21 6f 39 bf
       0.52439713 -0.50084054 -0.19787346 -0.72435194

bias_ih_l0 f4 [100]
000000 ae 45 ae 3e c8 af de 3e 08 8d 58 3e b2 16 d8 3e
       0.34037536 0.43493485 0.21147549 0.42204815
000010 8e 2f 34 3f 11 dd 80 3e 7e 63 11 3f 32 b8 25 3f
       0.7038506 0.2516866 0.5679244 0.64734185
000020 06 c1 80 3e 57 a9 e6 3e 96 c2 09 3f 5d a0 09 3f
       0.25147265 0.4505107 0.5381254 0.5376032
000030 4f fe bf bd dc 5b 6d 3e f9 ff 1a 3f 25 bd 13 3f
       -0.093746774 0.23179573 0.60546833 0.57710487
000040 30 a1 c5 3e da 36 18 3f d0 b9 d2 3e 82 22 cf 3e
       0.3859954 0.59458697 0.4115739 0.40456015
000050 d1 92 a8 3e f8 9c fc 3e 10 3b 0e 3f 75 29 0b 3f
       0.32924512 0.49338508 0.5555887 0.54360133
000060 bb 81 41 3f 40 aa fb bd ba 83 8b 3e 84 f4 b6 be
       0.7558858 -0.12288332 0.27248937 -0.35733426
000070 0d d7 c0 be bc 90 45 be 21 6f 03 bf 73 fc 7c bd
       -0.3766407 -0.19293493 -0.51341444 -0.06176419
000080 4b 56 9c be 6b 56 76 be ae c8 74 be d8 68 2d be
       -0.30534586 -0.24056403 -0.23904678 -0.16934526
000090 da 67 02 3f d6 64 1a 3e b4 95 1a be 7e 4f c2 be
       0.50939715 0.15077528 -0.1509617 -0.37951273
0000a0 08 b2 05 bf 3e de c2 be 6b ac d5 be a5 d9 ff bd
       -0.5222478 -0.38060182 -0.41733107 -0.12492684
0000b0 18 8a 94 be 1d d7 1e 3e 92 5d 56 3e 27 e3 28 bf
       -0.29011607 0.15511747 0.20934132 -0.65971607
0000c0 14 28 67 3e e9 20 21 3e 78 11 89 be 6e ab 71 bd
       0.22573882 0.1573521 -0.2677114 -0.05900138
0000d0 04 1a c5 3c 53 90 45 be fd a1 a5 be ae 1a f7 bd
       0.024060257 -0.19293337 -0.3235015 -0.120656356
0000e0 dc ba 2b bb a6 5e 35 3e 68 de c0 3d 08 9e 04 3c
       -0.0026203906 0.17711887 0.094174206 0.008094318
0000f0 b5 4a cd bd c3 e8 06 bd 39 32 ed bd d5 f1 27 bd
       -0.10024015 -0.032936823 -0.11581845 -0.041002113
000100 60 56 02 3e 74 05 25 be 27 e8 ee 3d 70 f0 44 3e
       0.12728262 -0.16115361 0.11665373 0.19232345
000110 ba ec 1d 3d 7a 50 ce be f3 04 ec bd 6d f9 9b bd
       0.03855584 -0.40295774 -0.115243815 -0.076159336
000120 61 91 f3 3d 67 f5 cf bd 14 9c d6 bc ab b2 d1 bc
       0.11892963 -0.10154229 -0.02619747 -0.02559789
000130 ab 73 38 3f 3b b3 9b 3e 00 4e 19 3f b2 f1 6e 3f
       0.72051495 0.3041018 0.59884644 0.9333755
000140 f7 3a f0 3e f8 69 77 3f ea 17 3d 3f 4a 47 46 3f
       0.46919987 0.9664607 0.73864615 0.7745253
000150 a4 1c 65 3f 1d b4 20 3f 76 08 8e 3f 7a 1b b1 3d
       0.8949683 0.6277483 1.1096332 0.08647819
000160 06 6a 5f 3f c9 67 38 3f 2c b5 6f 3f d5 fe 30 3f
       0.87271154 0.72033364 0.9363582 0.6913884
000170 dc 24 e3 3e 86 eb 3c 3f 53 f3 7d 3e 90 73 86 3f
       0.4436406 0.7379688 0.24799852 1.0504017
000180 d0 46 32 3f 3d b4 02 3f b9 a5 6b 3f b0 57 6f 3f
       0.696393 0.5105627 0.9204975 0.93493176

bias_hh_l0 f4 [100]
000000 39 79 bb bb f8 21 d6 3e 3e f4 2a 3e 32 c7 2a 3f
       -0.005721238 0.4182279 0.16694734 0.667102
000010 5d 88 e8 3e 3c b3 a3 3e f8 8b 1f 3f d3 4a b6 3e
       0.45416537 0.31972682 0.6232295 0.3560396
000020 4d 8e 8f 3e 01 bb f2 3e 32 d9 11 3f c5 7f 2a 3f
       0.28038254 0.47408298 0.5697204 0.6660121
000030 14 67 e3 3d 47 b4 a3 3e 4e cc 28 3f 51 76 16 3f
       0.11103645 0.31973478 0.65936744 0.58774287
000040 d2 3e 23 3e 88 54 f6 3e e0 86 df 3e a0 fa a3 3e
       0.15941933 0.48111367 0.4365759 0.3202715
000050 2f 91 e5 3e 92 f0 0b 3f 4b 40 dc 3e 9d cb 2e 3e
       0.4483733 0.54663956 0.43017802 0.1706986
000060 1d 3f 18 3f df fd 33 be 79 8c 8f 3e ec 0c b9 be
       0.59471303 -0.17577313 0.2803686 -0.3614267
000070 c2 de e5 be 91 ea 81 be fc 67 0c bf 11 42 cb bc
       -0.44896513 -0.25374272 -0.5484617 -0.024811776
000080 ab 25 92 be e2 b6 d7 bd 23 d7 f2 bd 0e 42 fd be
       -0.28544363 -0.10532929 -0.1185744 -0.49464458
000090 72 f8 c9 3e 31 20 a9 3e c0 9b ed bd b3 2b b4 be
       0.3944736 0.33032373 -0.116019726 -0.3518959
0000a0 45 5a 13 bf b8 06 bd be 44 e1 15 bf 7f 7d 6a bd
       -0.57559615 -0.36919188 -0.58546853 -0.05724859
0000b0 67 60 7c be 5d 1a 6c 3d 1b 90 33 3e 4e 9a b8 be
       -0.2464615 0.05764233 0.1753544 -0.36055225
0000c0 3f d0 b1 3d ed 37 32 3e b2 7c 82 be 66 b9 dc bd
       0.08682298 0.17404146 -0.2548576 -0.107775494
0000d0 4c 1a 7b 3e 4b e8 67 be 7f 43 de 3c 2d 4f 40 be
       0.2452175 -0.22647206 0.027131794 -0.18780203
0000e0 5f 6f e3 3d 59 33 af 3e 0a 54 89 bd c2 3b 6f be
       0.11105227 0.34218863 -0.06705482 -0.2336264
0000f0 8c 5a bc be ed aa 12 3e f0 a1 56 be 42 a4 a3 3e
       -0.36787832 0.14323016 -0.20960212 0.31961256
000100 f5 6a 91 3e 0e e4 89 be 4c fb bb 3d 51 21 aa 3d
       0.28401914 -0.26931804 0.091787905 0.08307136
000110 ce eb 03 3e 5a 91 04 bf c0 86 dc 3d 35 99 10 3e
       0.12882921 -0.5178429 0.10767889 0.14120944
000120 b0 7f 19 3d 78 07 1a bd 0d f2 1b 3e ef f2 35 be
       0.037475288 -0.03760478 0.15229054 -0.17768453
000130 ca ae 2e 3f 78 e4 17 3f d1 02 32 3f 81 de 3b 3f
       0.68235457 0.5933299 0.6953555 0.7338639
000140 50 eb 37 3e 97 c1 2c 3f a0 e6 22 3f cb e3 36 3f
       0.17960858 0.67482895 0.63633156 0.71441334
000150 21 d0 5e 3f 2f 00 26 3f f3 56 6b 3f a1 e4 7a 3e
       0.8703633 0.6484403 0.9192955 0.24501278
000160 0b fc 2c 3f a5 70 75 3f 8e 69 16 3f 2c 62 2b 3f
       0.6757209 0.95875007 0.58754814 0.66946673
000170 bd fd 20 3f 4d e5 4b 3f e4 7f c3 3e ae 0a 5e 3f
       0.62887174 0.7964676 0.3818351 0.86735046
000180 1e 68 4a 3f ce f1 0c 3f 52 17 17 3f 46 fb 42 3f
       0.7906512 0.55056465 0.5901996 0.7616466

weight_ih_l0 f4 [100, 52]
000000 5f ec 77 3d ee 52 00 bb 76 4f e3 bd ff 79 68 be
       0.060528155 -0.001958068 -0.1109914 -0.22702788
000010 e1 fd a0 bd d3 7a 0c 3d 31 0e a3 3d d6 05 91 3d
       -0.078609236 0.03429682 0.07961691 0.07081191
000020 fe 82 32 3c 1c 5a a8 bd 77 88 db 3d 65 56 c0 bd
       0.010895489 -0.08220312 0.10719388 -0.093914784
000030 2a dc 43 be 8f a8 3a bc e7 c0 30 3e b2 2c 27 3e
       -0.19126955 -0.011392727 0.17261086 0.16325644
000040 ef 2f 0f bd f8 67 1c 3c 7c 7e 95 3b 0b 20 21 3e
       -0.034957822 0.009546272 0.0045621973 0.1573488
000050 39 20 fb 3d ca e4 bd bd c4 ab 1f 3e f1 db 20 bd
       0.12262005 -0.09272154 0.15592867 -0.039272252
000060 00 83 8b 3d cd 67 93 be 7f 4d 31 bd 1e a4 54 3d
       0.06812096 -0.2879013 -0.043286797 0.051914327
000070 e7 da aa 3d 52 48 a1 bd 5d 89 e7 3d ea af 0d 3d
       0.083425336 -0.07875122 0.11305497 0.034591593
000080 db d5 06 3d a5 ab 33 bd cc 6a 44 bd f4 3b a9 3d
       0.032918792 -0.043864865 -0.047953412 0.08263388
000090 ab 8f 3d 3d 0c a1 8a 3e 9c b2 62 bd c5 ee 8e 3d
       0.04627959 0.27075994 -0.055346116 0.069791354
0000a0 1c da 36 be d0 c8 4d bd d8 9c 7e bd 45 f4 88 ba
       -0.1785664 -0.050240338 -0.062161297 -0.0010448775
0000b0 f3 e9 a8 bb 48 d1 97 3b dc 8d 6c bc 6d 4e cf 3d
       -0.005154842 0.0046331026 -0.014438119 0.101223804
0000c0 ae ad 2c be 68 e9 a9 3d 9a ac 0c 3e 3e 5e 88 be
       -0.16863129 0.08296472 0.13737717 -0.266344
0000d0 46 7c f0 bd 8f f3 44 bc 43 e8 c6 be 16 20 37 be
       -0.11742453 -0.0120209595 -0.38849077 -0.17883334
0000e0 a4 e6 2d be 89 ad 57 3d 1a 77 a7 3d f6 4b 67 3e
       -0.16982514 0.05265573 0.08177014 0.2258757
0000f0 ef e9 09 3e c4 80 53 be 4e fa fa bd 4f ba bb bd
       0.13468145 -0.20654589 -0.12254773 -0.09166395
000100 8f 7f ff 3c ab f4 0b be f2 6d 97 3d 25 6e c4 3d
       0.031188754 -0.13667552 0.07394017 0.09591321
000110 f2 69 37 bd ae 9c 97 bd b0 de a6 3b a3 f5 f3 3d
       -0.04477877 -0.07402931 0.0050924644 0.11912086
000120 f8 8e aa 3d 43 07 2e 3e db 76 8e be ae 5d 20 bd
       0.083280504 0.16994958 -0.27825055 -0.03915184
000130 92 73 00 be 44 d4 62 bd d5 4b 5e be 1e eb 07 3e
       -0.12544087 -0.055378214 -0.21708615 0.13273284
000140 1b 6e f3 bd 87 f2 be 3e aa ee 9c bd 92 30 a8 3d
       -0.11886235 0.3729441 -0.07662709 0.08212389
000150 c4 09 ba 3e 95 f7 25 bd 75 76 3b 3e c9 b4 11 be
       0.36335576 -0.040519316 0.18306907 -0.1422912
000160 55 71 07 3e 64 c2 4c 3e 45 2f 01 be e2 7e 4b 3e
       0.13226826 0.19996029 -0.12615688 0.1987262
000170 f8 09 a1 3e 91 b2 9b 3d d8 87 02 3d dd 6a 44 be
       0.31452918 0.07602418 0.031867832 -0.1918139
000180 42 52 2c 3e 42 9b e8 3d 76 a7 de bd e6 77 b7 3c
       0.16828254 0.11357738 -0.108717844 0.02239604
000190 62 86 24 3c 0b 64 12 3e 31 8d c8 3d 44 17 1d 3d
       0.010041805 0.14295976 0.09792555 0.038352266
0001a0 d9 bf 9b be b0 76 39 bd 36 7e 17 3e 62 f5 6a be
       -0.30419806 -0.045279205 0.1479424 -0.22945169
0001b0 27 d9 d1 3d cd f1 0d 3e bf 47 99 bd 7e 8e 91 be
       0.10246497 0.13861771 -0.074843876 -0.28429025
0001c0 e6 78 e4 3d de dc 89 bb a1 11 57 3d ea ca 12 be
       0.11155872 -0.0042072376 0.052507047 -0.14335218
0001d0 5f 3e bf bd ed e7 4f 3e 4f 12 cd 3e e2 e6 c5 3d
       -0.09338068 0.20303316 0.4005303 0.09663178
0001e0 38 2d 2b be dd ae 57 3c 03 9b 67 bd 6c 5f 95 be
       -0.16716468 0.013164249 -0.056544315 -0.29174364
0001f0 ed 36 96 bd 3b 05 52 3e b0 14 23 be 52 25 d6 be
       -0.07334695 0.20509808 -0.1592586 -0.41825348
000200 b8 7d 85 be 98 db d0 3d 70 49 52 be 5b 7c fb bd
       -0.26072478 0.10198134 -0.20535827 -0.12279578
000210 60 64 34 be 71 5e a4 be 9d de ab 3d c4 c0 59 be
       -0.17616415 -0.32103303 0.083920695 -0.2126494
000220 4d 3a 0b be 77 75 07 be 5a 4a c2 3d 18 8a c4 be
       -0.13596459 -0.13228403 0.09486838 -0.38386607
000230 dc b3 41 3a 42 6a af bd f0 9c eb 3d 7c b6 65 bc
       0.0007389167 -0.08565189 0.11504543 -0.014020558
000240 99 ae 5b 3c d1 e2 76 be 26 ba fa 3c 79 3c 27 3e
       0.013408327 -0.24109961 0.03060634 0.16331662
000250 a6 4c 18 be e3 09 67 3c f9 15 79 3e 76 36 4d be
       -0.14872989 0.014101478 0.24324788 -0.20040306
000260 e4 22 ef 3d b4 5a ce 3d 6e 85 fb 3d 82 ed 83 3c
       0.11676577 0.10075894 0.12281309 0.016104463
000270 99 46 02 be f3 23 8f 3e 4b 68 c5 3c 19 06 d1 3d
       -0.12722243 0.27957115 0.024097582 0.10206241
000280 9d d7 50 bc 3a 1a 4b 3d 00 20 4e 3e aa a7 1d 3e
       -0.012746719 0.04958556 0.20129395 0.1539599
000290 5b 1c 4e be 92 5d 7d bb 31 85 69 be 46 2f 8a 3d
       -0.20128004 -0.0038660509 -0.22804715 0.06747298
0002a0 6c 8d 93 bd 50 20 9c 3d 57 a0 1b be 85 f1 a2 bc
       -0.072047085 0.076233506 -0.15197884 -0.019890556
0002b0 b0 4c 1b 3d 05 3d 40 3d b2 99 40 be 14 71 f9 3c
       0.03791493 0.046933193 -0.1880863 0.030449428
0002c0 8c 37 88 3d 14 77 20 3d e4 74 3e bf 5b 42 d7 3e
       0.0665122 0.03917606 -0.7439711 0.42042813
0002d0 d9 2c 10 bc 0c b4 2a 3d 0b cf 85 be b2 55 f3 be
       -0.008799755 0.041675612 -0.26134524 -0.47526318
0002e0 e0 01 1e 3e 39 a9 a2 3e 76 82 9a 3b 00 27 84 3d
       0.15430403 0.31769732 0.004715259 0.06452751
0002f0 d3 47 b0 3e b8 a8 ec bc 61 7c 2d 3e 55 0a f1 3d
       0.34429798 -0.028889045 0.16941978 0.11769549
000300 cc e5 af 3e b6 5a 93 3c 23 95 7b 3e f8 b8 a7 bd
       0.3435501 0.01798759 0.2456861 -0.08189577
000310 45 02 de bc 46 d8 a3 3d 2d fe 87 3d e4 30 b2 3d
       -0.027100692 0.08000235 0.06640277 0.087007314
000320 3b 55 07 3e 25 50 1b bd cc 27 05 3e b2 4e ab 3d
       0.13216107 -0.03791823 0.13003463 0.08364619
000330 74 fe 8d 3d 13 5d 31 be 49 3e d8 3d 87 f5 86 3d
       0.06933299 -0.17320661 0.10558755 0.065897994
000340 0f 75 8a 3d 93 1b 67 3e 6a f1 00 3e ca d8 e6 3d
       0.067606084 0.22569112 0.12592092 0.11271818
000350 00 ac ff bc aa e2 8b 3d 53 0e ba bd 3e db 13 be
       -0.031209946 0.06830342 -0.090847634 -0.14439103
000360 a7 df 85 3e 9e ce 0c 3e b8 1d 8e 3d 3e cd 10 3e
       0.26147196 0.13750693 0.06939262 0.14140794
000370 ce cf 50 3e c3 28 74 be c6 27 84 bd d9 2e 84 3e
       0.20391771 -0.23843674 -0.06452899 0.25816992
000380 3f 7e 2a 3d 2f b4 16 3c dc af 14 3d b4 d6 63 bd
       0.041624304 0.009198233 0.036300525 -0.05562468
000390 fb fa b2 bd 0c cf 05 3e df 18 5b bd 90 bf c7 bd
       -0.08739277 0.13067263 -0.053490516 -0.097533345
0003a0 fd 8f 43 3e 9f b4 fe bd fc d8 78 3d e8 c6 8d bd
       0.19097896 -0.124367945 0.060753807 -0.06922704
0003b0 ab 61 39 be a2 08 1f bd d6 b2 3c bd 6e 8e 67 3d
       -0.18103664 -0.038826592 -0.04606899 0.056532316
0003c0 f2 a9 43 3e c8 08 4b bd 40 57 3c 3e f0 e5 9b 3d
       0.19107798 -0.04956892 0.18392658 0.076122165
0003d0 13 11 fc 3c a9 54 69 3e db c8 17 3e ce 60 6b 3e
       0.03076986 0.22786202 0.14822714 0.22986147
0003e0 10 df af 3d 6b bd 1f bd 37 e4 4c be 91 14 86 bd
       0.08587468 -0.038999002 -0.20008932 -0.065468915
0003f0 fe 63 90 be 79 41 eb bd 10 6f e3 3d dd 1c 24 be
       -0.28201288 -0.11487097 0.11105168 -0.16026635

weight_hh_l0 f4 [100, 25]
000000 53 6d 9f 3f e6 df f1 3e 85 c2 df 3e f2 d2 3f bf
       1.2455238 0.47241133 0.43703094 -0.7493125
000010 2a 6e f8 be d2 de 50 3f 6d 70 6e be bb 48 8d 3f
       -0.48521549 0.81589997 -0.23285075 1.103782
000020 5a 21 13 3f 24 2a d0 be f5 5b 1d bd 92 e0 30 be
       0.57472765 -0.4065715 -0.038417775 -0.17273167
000030 3c 8d de be 52 7e 66 3f 0d 14 2d 3f 44 fb 5b bf
       -0.43467128 0.900365 0.6760872 -0.85930276
000040 60 78 72 3f dc 8e 1c 3f a6 c5 4b 3f 10 99 99 be
       0.9471493 0.61155486 0.7959846 -0.2999959
000050 da 8e 84 3f c7 b0 62 be 5e ac 29 3f ed 57 6e bf
       1.0356095 -0.22137748 0.66278636 -0.93102914
000060 af c6 af 3e 67 c2 0a bf 21 37 ee 3d b7 67 be 3e
       0.3433127 -0.54202884 0.11631609 0.37188503
000070 89 f5 ba be f1 a8 d4 be db 78 6f bf 7c 44 85 3e
       -0.36515453 -0.41535142 -0.93543786 0.26028812
000080 52 32 53 3f b6 13 05 3f 96 f1 03 bf d8 b3 f8 be
       0.8249866 0.519832 -0.51540506 -0.4857471
000090 9e 4b 89 3d c4 e7 89 bf bf 84 49 3f 48 b8 0e 3e
       0.06703876 -1.0773854 0.7871818 0.13937485
0000a0 f2 4d 0f bf 8e b6 61 3f 19 73 70 3f d8 38 7f 3e
       -0.5597831 0.8816918 0.93925625 0.24924028
0000b0 33 e1 77 be 44 52 a5 3e 17 7d f1 3c 89 fd 0a 3f
       -0.24207 0.32289326 0.029478593 0.54293114
0000c0 2c 91 26 bd 35 3a 68 3f 13 96 e7 be dc 67 e0 be
       -0.04066579 0.90713817 -0.45231685 -0.43829238
0000d0 3b ff 05 bf 6c 66 96 bf a7 78 04 bf d1 de ac be
       -0.52342576 -1.1750007 -0.517466 -0.33763745
0000e0 65 72 75 3f 0f 7d 2e 3f 4a c6 bd 3e 9c da 33 bf
       0.9587768 0.68159574 0.37065345 -0.70255446
0000f0 fb 34 94 be 3e fb 35 3f bc b7 55 bf 51 76 73 3e
       -0.2894667 0.7108649 -0.8348348 0.23775603
000100 9d af 16 3f 18 78 93 be e4 f1 4d 3f 5e 70 33 3f
       0.58861715 -0.28802562 0.8044722 0.70093334
000110 ce 50 b0 3e 77 d6 88 be 28 2c a9 3e 70 0c 71 be
       0.3443665 -0.26726124 0.330415 -0.23539901
000120 28 aa 72 3f c7 2e 4c bf 12 12 92 3e d4 80 f4 bd
       0.9479089 -0.79758877 0.28529412 -0.119386345
000130 c5 aa 5f bf 9f 1e 82 3d a4 3d 40 3f 89 b2 34 bf
       -0.8736995 0.06353497 0.75094056 -0.70584923
000140 01 e4 02 be ee 30 98 3f cb b2 2a 3f 72 50 69 3f
       -0.12782289 1.1889932 0.66679066 0.91138375
000150 ab 7b 70 be 8f 93 04 bf 18 6d 2b 3f ea fa 8d bf
       -0.23484676 -0.51787657 0.6696334 -1.1092198
000160 a2 d8 9b 3e 52 55 4a be ff 77 e9 bf 87 8d 81 3f
       0.30438715 -0.1975911 -1.8239745 1.0121316
000170 c7 0e ac 3f f2 f3 21 bf fc 20 f2 bc ea 9a 06 3f
       1.344201 -0.63262856 -0.029556744 0.5258013
000180 79 3b 52 bd 56 91 dc 3e 8a d8 86 be d0 bc 2f 3f
       -0.05132625 0.43079633 -0.2633708 0.6864748
000190 dc 9d 0c bf 5d 6f 42 bf 2e 19 04 3f e4 52 6a bf
       -0.54928374 -0.75951177 0.5160092 -0.9153273
0001a0 8f b9 72 3f b7 b4 36 bf 39 f2 da 3e 14 89 21 3f
       0.9481439 -0.713695 0.42762926 0.6309979
0001b0 7c d3 c6 be 7c 40 fa 3d ea 55 45 bf 3d 63 f7 3e
       -0.38833225 0.12219331 -0.7708422 0.483179
0001c0 04 4b 40 bf dd 7f 7d 3d 53 e2 d3 3e 30 55 58 bf
       -0.75114465 0.061889518 0.4138361 -0.84504986
0001d0 c4 99 34 3f bf 47 94 3e e2 4c ad 3e f7 45 32 bf
       0.7054713 0.28960988 0.3384772 -0.6963801
0001e0 5e 64 ce 3e 70 9e fa be 53 fb 13 3f 24 35 f5 be
       0.4031095 -0.48949003 0.57805365 -0.47892106
0001f0 73 fe 95 3e 0a 61 31 bf 51 5d 5c be c4 5b 08 3f
       0.29295692 -0.69288695 -0.21519972 0.53265023
000200 3f 9c 1c bf 10 0f 1e bf 05 0f 68 3f b6 ae bf 3e
       -0.6117591 -0.61741734 0.9064792 0.3743798
000210 92 04 2b 3f 5d d5 41 3f 61 1a 93 be 2c 51 42 bf
       0.6680385 0.7571619 -0.28731063 -0.7590511
000220 44 cf 16 3f 9e a7 37 bf 1e bd 2c 3f bd fb 88 3e
       0.5891001 -0.7174014 0.6747607 0.2675456
000230 b6 a5 a8 be 8e 41 9f 3f 5b 31 e7 3e 65 b5 0e 3f
       -0.32938927 1.2441881 0.45154843 0.55745536
000240 74 10 47 bf 24 c5 1f 3f b3 54 f8 3d 4b 0c 45 3f
       -0.7775948 0.6241019 0.1212553 0.7697188
000250 5c 56 94 bf 71 a7 c8 3e f4 80 98 bf 16 fc c5 be
       -1.1588855 0.39190248 -1.1914353 -0.3866889
000260 ee 51 1f 3f 4a 3c 17 bf 78 86 46 bf 68 39 62 bf
       0.6223439 -0.5907637 -0.77548933 -0.88368845
000270 bf 51 3b 3c 5f c9 d3 3e e0 2e 82 3f 51 f7 f9 be
       0.011433064 0.4136457 1.0170555 -0.488215
000280 c0 04 09 bf 59 49 06 3f 9f ba 6b bf 80 b3 a0 3f
       -0.5352287 0.5245567 -0.92081636 1.2554779
000290 81 04 20 3f aa ce 1d be ee c1 5d 3e e6 e2 3d 3f
       0.6250687 -0.15410867 0.2165601 0.74174345
0002a0 26 f5 86 bb 44 89 16 bf f5 f2 82 3e ff af 59 3e
       -0.0041185794 -0.588032 0.25575987 0.21258543
0002b0 23 be e6 3e f6 4e 2c bf 48 c1 4b be b1 7d f6 be
       0.45066938 -0.67307985 -0.1989795 -0.4814277
0002c0 a4 a6 5f bf 8f c9 d8 3e e6 eb ba bf 35 dd 81 3e
       -0.8736365 0.42341277 -1.460324 0.2536408
0002d0 7d fb ad bd 29 1e 6e 3f 53 7b cf bf 61 fd 44 3e
       -0.08495233 0.9301477 -1.620951 0.19237281
0002e0 e1 b6 42 bf 95 97 e0 bd 64 d6 da 3e 31 89 45 bf
       -0.760603 -0.10966412 0.42741692 -0.7716246
0002f0 f5 f4 cb 3e 40 1b 84 3f 2c a0 a5 bf 3f fe ee 3e
       0.39835325 1.0320816 -1.2939506 0.4667835
000300 f5 b3 4f 3f b5 0d 0a be 75 2e ee 3e ad b7 aa 3e
       0.8113397 -0.13481791 0.4651982 0.33343259
000310 1c ab c6 be d4 c1 5e 3f d5 f3 d5 3e 7e c4 7d 3e
       -0.3880242 0.8701451 0.41787592 0.24781987
000320 08 52 0d bf 42 5d 1a bf fb 96 93 3e 60 39 b5 be
       -0.55203295 -0.6029855 0.28826126 -0.35395336
000330 7b 5b b7 3e 51 35 ba be 38 a8 98 3f ec 90 15 3e
       0.35811982 -0.36368802 1.1926336 0.14606065
000340 05 54 a7 be eb 52 1a bf e0 29 14 bf d5 dc a3 3d
       -0.3268129 -0.6028277 -0.57876396 0.08001105
000350 cb 44 40 bf ed 00 23 3f c5 7d 1e be c5 a4 54 3e
       -0.7510497 0.6367329 -0.15477665 0.2076598
000360 9a 1d b8 3e 0a 46 01 3e 6d 4a 86 3e 4c 8c 10 bd
       0.35960084 0.12624374 0.26228657 -0.035290048
000370 9a 2c 6c be 21 a3 ee be d1 ad 9f 3e 60 17 38 bf
       -0.23063889 -0.46608832 0.311873 -0.7191067
000380 de c8 ce 3d 2c ae 86 bf a9 1a b7 bd df 1f 89 3e
       0.10096906 -1.0521903 -0.08940632 0.26782128
000390 33 b2 22 bf 2d 83 c2 bc 6e a4 74 bd 65 42 93 3c
       -0.6355316 -0.02374419 -0.059727125 0.017975995
0003a0 68 c4 5f 3f e1 af 61 3f ad 8f 4e 3f 73 a7 40 bf
       0.8740907 0.88158995 0.8068798 -0.7525551
0003b0 b8 90 da be 6a 49 29 bf 99 3f 8f 3e a0 35 e4 3d
       -0.42688537 -0.66127646 0.2797821 0.11143041
0003c0 e2 0f f0 be 38 b8 6b 3f 70 5e 7c 3f ad 8e 55 3d
       -0.46887118 0.9207797 0.985816 0.05213802
0003d0 13 ad 6e bf 7d ac cf 3f fe 4a a1 3d 6d 57 2a 3f
       -0.9323284 1.6224514 0.07875632 0.6653965
0003e0 ad ec 53 3d af 9f 54 3f 61 b1 87 3e e2 44 15 bf
       0.051739383 0.8305616 0.26502517 -0.5830823
0003f0 ed 10 39 bf aa dd bd bf c2 b8 f3 bb 7c f0 58 bf
       -0.7229145 -1.4833272 -0.0074377963 -0.8474195

bias_ih_l0 f4 [100]
000000 2e 76 c1 3e 41 52 0e 3f e5 cd 49 3f ba 5f be 3e
       0.37785476 0.5559426 0.78829795 0.3718241
000010 e2 94 08 3f 9c 63 96 3e 79 2e 4a 3f af a8 01 3f
       0.5335218 0.2937287 0.7897716 0.50648016
000020 14 9a 00 3f d7 02 23 3f 74 ec d2 3e 79 cf 0c 3f
       0.50235105 0.6367621 0.41196024 0.5500408
000030 9f 7b 87 3e f3 f8 01 3f 3e aa cc 3e 06 9d ad 3e
       0.26461503 0.5077049 0.39973634 0.33908862
000040 14 cd 0a 3f 50 96 fe 3e d3 2f e8 3e 06 9c 0b 3f
       0.54219174 0.49724054 0.45348987 0.5453495
000050 ad d1 58 3f d1 77 1e 3f e8 aa 18 3f 8a 03 12 3f
       0.8469494 0.61901575 0.5963578 0.5703665
000060 7d e1 7a 3f 5c 68 04 be d5 98 37 3e d7 25 24 be
       0.9800032 -0.12930435 0.17929395 -0.1603006
000070 8b d4 a3 be b4 3d 49 bf a4 d2 02 be 42 9c dd 3c
       -0.31998095 -0.78609776 -0.12775666 0.027052049
000080 05 60 a4 be 14 61 a5 bc c1 09 09 be 7d fb 2c bf
       -0.32104507 -0.020187892 -0.13382627 -0.6757124
000090 e0 fd b7 3e 84 e4 c8 3e 24 ba 32 bf 52 3d 4f be
       0.3593588 0.39236844 -0.6981528 -0.20238236
0000a0 a4 af 25 bf de 42 1a bf 2c 67 05 bf 4e c5 4b 3e
       -0.6472113 -0.6025828 -0.5211055 0.19899485
0000b0 18 dd a1 be 9f 79 a4 3e 0a 5a 8f 3e d8 38 df bd
       -0.31613994 0.3212404 0.27998382 -0.10899514
0000c0 0f 3f e6 3e f9 f8 85 3e 1a 7c 89 be ce d3 74 3b
       0.44969985 0.26166514 -0.26852494 0.003735769
0000d0 d0 4e 3b 3e 90 b4 ca be f4 fa 88 be 43 f0 19 be
       0.18291783 -0.39590883 -0.26753962 -0.15033059
0000e0 2d 1f 01 3e 34 ce 1e 3e 4a 94 69 3e ac fc 1e be
       0.12609549 0.15508348 0.22810474 -0.15526074
0000f0 c5 d3 99 be cd b7 2a be d8 61 b5 be 6a b6 b0 3c
       -0.3004438 -0.16671677 -0.3542621 0.021571357
000100 e7 e9 63 3d 01 c0 64 be 9b fc 05 3d ac c7 b6 3e
       0.05564299 -0.22338869 0.032711606 0.35699213
000110 c1 a8 aa 3c 7f 97 34 be bb 10 98 3c 03 67 28 3e
       0.020832421 -0.17635916 0.018562665 0.16445546
000120 3d b3 6c 3e 3a 8c 3b bd 6a f4 60 3d 9e d0 18 3f
       0.23115249 -0.045788027 0.05492059 0.59693325
000130 4e 85 18 3f 43 9d 51 3f 78 2a cc 3e e7 cf 58 3f
       0.59578407 0.8188059 0.3987615 0.84692234
000140 c7 9c 21 3f b8 1b 17 3f d1 bf 27 3f 37 7f 17 3f
       0.6312985 0.5902667 0.65527064 0.5917849
000150 ef 25 06 3f 83 49 c4 3e f5 be 7a 3f d3 80 05 3f
       0.5240163 0.38337335 0.9794763 0.52149695
000160 82 66 38 3f eb a1 0f 3f d4 53 4f 3f 48 c4 e9 3e
       0.72031415 0.5610644 0.80987287 0.45657563
000170 93 ef 19 3f b5 06 18 3f ca 3b 29 3f bb 87 4e 3f
       0.60131186 0.59385234 0.66106856 0.8067586
000180 2b 16 4e 3f 82 c8 46 3f a5 32 46 3f 44 bd 43 3f
       0.80502576 0.776497 0.7742103 0.7646067

bias_hh_l0 f4 [100]
000000 d7 0a 85 3e bd bb 08 3f 7f d7 76 3f 36 81 d6 3e
       0.25984833 0.53411466 0.9642257 0.41895455
000010 0f c4 19 3f 05 f2 0c 3f a5 24 3a 3f 71 b9 ab 3e
       0.60064787 0.5505679 0.72712165 0.33539918
000020 25 af 34 3f 5a 29 24 3f aa 96 f6 3d 41 e4 24 3f
       0.7057975 0.641256 0.12040456 0.6441079
000030 1e 65 7f bd 2b bb f3 3e bc 83 09 3f 49 eb a9 3e
       -0.062352292 0.47603735 0.53716636 0.3318732
000040 a7 34 a3 3e b6 10 f6 3e 4f 51 ed 3e a7 e1 00 3f
       0.31876108 0.48059624 0.46351096 0.5034432
000050 0c db 32 3f 79 8a 1c 3f ae 90 1f 3f a2 f1 41 3f
       0.6986549 0.6114879 0.6233014 0.7575933
000060 d4 2d 33 3f a4 b4 cf bd cc 21 2a 3e 9d 31 bd be
       0.69991803 -0.10141876 0.16614455 -0.36951914
000070 65 31 12 bf 97 6f e9 be e0 1c e6 bd 97 b1 92 be
       -0.5710662 -0.4559295 -0.11235976 -0.28651115
000080 66 13 68 be c2 e9 55 bd 89 a0 b4 be 95 ae 2a bf
       -0.2266365 -0.052224882 -0.3527873 -0.6667264
000090 f2 36 b3 3e e9 7d 5a 3e 78 74 f2 be 9b d2 f9 be
       0.35002857 0.21337093 -0.47354484 -0.48793492
0000a0 73 5b f3 be 06 e8 da be 15 b1 b5 be 70 8f 13 3e
       -0.47530708 -0.42755145 -0.35486665 0.14410186
0000b0 df a4 cd be 46 ba 94 3e 98 d7 87 3e 35 00 10 3d
       -0.4016485 0.29048365 0.26531672 0.035156447
0000c0 f2 fc d1 3e e0 13 f4 bd 88 c4 92 be ac 24 7b bd
       0.41013294 -0.11917853 -0.28665566 -0.06131427
0000d0 b2 2e 45 3e f9 f6 2d be 07 a0 1b be d0 b0 55 be
       0.19256094 -0.16988744 -0.15197764 -0.2086823
0000e0 6c 41 5e 3d 2f 80 b7 3e 96 6f f2 bd 69 7e fb bd
       0.05426161 0.35839984 -0.118376896 -0.1227997
0000f0 38 35 41 be cf 7c 12 3e 51 db fe bd fc 88 77 3e
       -0.18867958 0.14305423 -0.12444175 0.24173349
000100 1a f6 5d 3e 2b 62 11 3d 45 21 69 3e e8 d0 92 3e
       0.21675912 0.03549401 0.22766598 0.28675008
000110 9a 34 ed 3d 7c 43 b8 be 53 74 15 3e a0 d3 28 3d
       0.115822986 -0.35988986 0.14595155 0.041217446
000120 14 b9 27 3d de 4b 28 be 44 b9 ec 3d 6e 03 b7 3e
       0.04094799 -0.16435191 0.11558774 0.35744804
000130 ab 31 1a 3f 30 ac 1a 3f c6 21 3b 3f 33 d9 36 3f
       0.6023204 0.6041899 0.7309841 0.7142517
000140 5e 59 16 3f f6 f1 13 3f bc 7d fe 3e 08 80 03 3f
       0.58730114 0.5779108 0.49705303 0.51367235
000150 7b b7 4c 3f d6 8a 15 3f b1 c2 1b 3f 96 e2 89 3e
       0.7996747 0.5841497 0.6084395 0.26930684
000160 3a 4d 33 3f 05 28 2b 3f 2a f9 55 3f 7e b3 0b 3f
       0.70039713 0.6685794 0.8358332 0.5457076
000170 31 21 42 3f 02 88 e5 3e b0 ab 03 3f 55 fd 12 3f
       0.75831896 0.44830328 0.5143385 0.57417804
000180 6f e5 2c 3f 56 db 07 3f 4b d7 40 3f c0 21 34 3f
       0.6753759 0.53069055 0.7532851 0.70364

weight f4 [52, 25]
000000 1e 92 6b bf 34 2b 36 3e 6e 08 11 bf 96 cd 8f 3f
       -0.9201983 0.17789918 -0.5665349 1.1234615
000010 77 a9 b9 3d 2d 91 fa 3e b5 f2 9a be 92 a4 75 3f
       0.09065526 0.48938885 -0.30263296 0.9595424
000020 28 9b b7 3e f5 be 50 3f 3c 34 6f bf 62 70 14 3f
       0.35860562 0.8154138 -0.9343908 0.5798398
000030 48 ac f4 3d 2b 4d d2 be de 68 4e 3e 18 44 09 3e
       0.119469225 -0.410745 0.20157191 0.13404882
000040 9f e5 cf 3b 09 cf bd 3e 0d 23 37 3f bb 6a 11 3d
       0.0063445116 0.37072018 0.7153786 0.035502177
000050 b6 e2 7c 3e 97 0c 4e 3f a7 6f 6a 3f 77 8e 92 3e
       0.24695858 0.8048796 0.9157662 0.28624317
000060 f8 7d 72 3f 25 63 70 3d b3 22 3a bf b0 33 06 3f
       0.94723463 0.0586883 -0.72709197 0.5242262
000070 ec fd ec 3e 86 70 34 bd 78 d2 04 bf c7 4a a7 bf
       0.46287477 -0.044052623 -0.5188365 -1.3069695
000080 55 fd 09 bf bd 86 7d bf 1a 79 77 bf 42 c9 5d 3e
       -0.5390218 -0.9903372 -0.9666916 0.21658805
000090 29 94 64 be d8 52 d0 be 79 62 0d 3f 59 99 b5 be
       -0.22322144 -0.40688205 0.5522838 -0.35468557
0000a0 90 d3 97 bd 36 42 d8 3d 04 6e 0b bf 5d a5 66 be
       -0.07413399 0.10559504 -0.54464746 -0.22524019
0000b0 47 d3 cb be c8 40 67 be 11 a1 33 3f df d4 5a 3f
       -0.3980963 -0.22583306 0.7016764 0.85481066
0000c0 d9 1e 58 3f 28 b7 d0 3e 4b 9e 04 3f b8 a8 b7 bd
       0.8442207 0.40764737 0.51804036 -0.089677274
0000d0 5a 96 a0 3e 4a be 47 bf 86 3b cc be 14 7e db 3e
       0.3136471 -0.78024733 -0.39889163 0.42869627
0000e0 40 7b f6 be 64 6d 99 bd c4 a5 0c bf 59 85 76 ba
       -0.48140907 -0.07491568 -0.5494044 -0.00094040256
0000f0 c2 33 de bd 77 35 0f 3f 52 a7 68 3f 8b a4 9b 3f
       -0.10849716 0.55940956 0.9088031 1.215959
000100 54 38 64 3f 61 95 7d 3e 09 55 a4 bc 82 4d 3f bf
       0.8914845 0.24764015 -0.02006008 -0.7472764
000110 95 10 4b 3f e0 01 73 bd c8 1d 1c be 01 1a 51 be
       0.7932218 -0.05932796 -0.15245736 -0.20420076
000120 7d eb bc 3d 46 78 39 bf 28 17 e6 bd d1 3c 87 3e
       0.09224603 -0.7244915 -0.112348855 0.26413587
000130 66 68 44 be 15 d0 16 3d f9 b3 00 3f d4 71 0b bf
       -0.1918045 0.036819536 0.50274616 -0.5447056
000140 7b 09 f2 bd 1a 6a eb 3d d4 1f 43 3e 91 5f 3d 3e
       -0.118182145 0.11494847 0.1905511 0.18493487
000150 51 38 af be 22 3e 11 be 55 b7 2f bf 30 de 09 3e
       -0.34222654 -0.14183858 -0.6863912 0.13463664
000160 fe e9 7f be ad 22 a1 bd 1e d9 88 3d ea 71 5c 3f
       -0.24991605 -0.07867942 0.06682037 0.8611132
000170 a9 24 31 bf 71 b5 05 bf a0 2e 33 be 57 54 50 be
       -0.69196564 -0.5222998 -0.17498255 -0.20344673
000180 34 65 33 bf 2b f0 44 3d 9e d2 c7 3d 41 a3 96 3e
       -0.700763 0.048080605 0.09756969 0.29421428
000190 96 d4 39 3d b1 da 96 3d eb c6 93 bc 6c a4 22 3c
       0.045368753 0.07365931 -0.018039187 0.009926897
0001a0 69 b5 c9 bc ad 59 3e 3d 2e 97 6a 3d cf 8c a0 bd
       -0.024622636 0.04647224 0.057273082 -0.07839357
0001b0 d5 c2 e1 3c 53 42 84 bb 67 28 06 3c 3b 79 bf bc
       0.027558723 -0.004036227 0.008188344 -0.023373237
0001c0 c0 d3 01 be 13 99 b8 3d bb ac 03 bb b0 01 49 bd
       -0.12678432 0.090135716 -0.002009197 -0.049073875
0001d0 68 3c b7 bd 4f 80 07 3d 67 06 51 bd f1 93 d8 3d
       -0.089470685 0.03308135 -0.051031496 0.105750926
0001e0 47 37 05 3d 8b 3b 45 bb e4 aa d6 bd 53 f0 4d 3d
       0.03252342 -0.0030095305 -0.104818135 0.05027802
0001f0 13 07 0e 3d eb 45 12 3e 2c 63 69 bd 07 57 4e 3d
       0.034674715 0.14284484 -0.056979343 0.050375964
000200 62 35 88 3e cc 92 46 be a1 c5 48 3b bd 97 85 be
       0.26603228 -0.19391936 0.0030635374 -0.2609233
000210 65 87 3d 3d df eb da bd ab 86 47 be db c3 61 be
       0.0462717 -0.1068952 -0.19484966 -0.22047369
000220 8e 67 65 bd 2c f2 86 3d 95 af 36 be 02 4e c8 3d
       -0.05600696 0.06589159 -0.17840417 0.09780504
000230 fb 07 4d 3d 47 c7 96 3e 67 a8 47 be cd c8 3d be
       0.05005644 0.29448912 -0.19497834 -0.1853363
000240 96 f6 80 bd 24 96 3d bc 15 18 9c 3d e5 94 a6 3e
       -0.062970325 -0.011571441 0.07621781 0.32535473
000250 a3 cf 03 3e df 94 1d 3e 45 dd 0b 3f ca 2c e5 be
       0.12872176 0.15388821 0.54634506 -0.44760734
000260 6a 34 8a 3e 4b 9f af be 75 a9 18 bf 5e b0 85 be
       0.26993114 -0.34301218 -0.5963357 -0.2611112
000270 d3 14 06 3e 55 c3 b3 be 36 c3 40 bd 0f 72 a2 3d
       0.13093881 -0.35109964 -0.047061168 0.07931911
000280 cf 5a ec be de 6e 3f 3f b5 95 56 3e f4 2a 9d 3e
       -0.4616303 0.74778545 0.20955546 0.30696833
000290 64 e5 2d bf 18 71 35 3f 33 b1 1e 3e ba 7a ab be
       -0.6792815 0.7087569 0.15497284 -0.3349207
0002a0 60 8a d7 be 8b 6a f2 be b5 69 00 bf f9 84 4b bb
       -0.4209776 -0.4734691 -0.50161296 -0.00310546
0002b0 38 12 32 bf 74 e8 f2 be f2 e7 43 3f d6 38 12 be
       -0.6955905 -0.47442973 0.76525795 -0.14279494
0002c0 da cd a8 3d 9f d7 8b 3d 1b 8c fa be 6c a4 93 3e
       0.08242388 0.06828236 -0.48935017 0.2883638
0002d0 df f8 e3 bd a5 05 41 3b 0c e4 9f be 49 d3 93 be
       -0.11131453 0.0029452827 -0.31228673 -0.28872135
0002e0 35 91 22 3e cd 90 84 bd 0b e5 06 3f 4d c4 e7 3c
       0.15875705 -0.06472931 0.5269324 0.028291846
0002f0 88 4b f7 3e 60 18 b8 be 87 17 a9 bd 39 29 20 bf
       0.48299813 -0.35956097 -0.082564406 -0.625629
000300 2b 80 e4 3e 7c f2 e4 3e 5d 26 28 3d 53 4b 49 bd
       0.44629034 0.4471625 0.04105221 -0.0491441
000310 7c 35 a4 3e ee e1 2c bd d5 1b 79 be 81 9a 9f be
       0.32072055 -0.04220765 -0.24327023 -0.31172565
000320 9d 6a 24 3e 93 82 a6 3c ee e6 0a be 2c cd c1 3e
       0.16056295 0.020325935 -0.13564655 0.37851846
000330 c2 f0 89 3f 81 e5 23 bc e3 83 92 bf 95 f5 22 3f
       1.0776598 -0.010003448 -1.1446499 0.6365598
000340 46 29 4d 3f 6f 68 33 bf 5d db 82 3f 8b be 87 3e
       0.80141103 -0.7008123 1.0223194 0.2651256
000350 ad 56 a3 3f 36 7d 2b 3f 7a 8c 98 bf 8a 41 3f bf
       1.2760826 0.6698793 -1.191787 -0.7470938
000360 0f 9c 00 3e 93 0c 1c 3e 8d e5 31 bf 85 5a c2 be
       0.12559532 0.15239172 -0.6949089 -0.37959686
000370 8c 1f 7b bf 3c b0 a1 3e 6c 17 22 3f 86 45 86 3d
       -0.9809501 0.3157977 0.6331699 0.06556229
000380 58 8a 9a 3f 4e b7 ef be 96 8d f4 be d2 29 2b bf
       1.2073469 -0.46819538 -0.47764271 -0.6686069
000390 34 20 08 3f 3b 1b 1f be 90 5f 13 3f b4 21 8d 3f
       0.5317414 -0.15537731 0.5756769 1.102591
0003a0 bb 89 7a bf f1 43 3a bd 8b be 91 bf 86 95 6f 3f
       -0.9786641 -0.04547495 -1.1386274 0.9358753
0003b0 85 25 96 3d 0e 56 19 bd b9 fa 8d be fe ef 77 3f
       0.07331375 -0.037435584 -0.2773035 0.96850574
0003c0 da 8b a2 3d 45 e1 08 3f 18 6d 08 3f d1 c4 0b 3f
       0.07936831 0.53468734 0.53291464 0.54597193
0003d0 40 ed 57 3f ab f5 20 bf f2 0a b3 be 71 5d 88 3f
       0.8434639 -0.6287486 -0.34969288 1.0653516
0003e0 41 7f 09 3e b3 8c 13 3f e3 5b 62 bf a7 65 c2 3e
       0.1342745 0.57636565 -0.8842146 0.3796818
0003f0 31 e8 55 3f 2d 4d a9 be d8 72 63 3f 73 43 2a 3f
       0.8355742 -0.33066693 0.8884711 0.6650917

bias f4 [52]
000000 a9 ad 78 be 94 57 2e be a2 65 60 3e c9 a9 81 3d
       -0.24284996 -0.17025596 0.2191377 0.06331212
000010 4a 19 9c 3b c5 a9 c7 3c ec ba b6 3d 78 c9 ae bd
       0.004763757 0.024372945 0.08922371 -0.08534521
000020 f7 12 22 3f 27 f1 99 3d 36 8c a7 be 4c 4c b0 3d
       0.6331019 0.07516699 -0.3272416 0.086083025
000030 ef 9a e6 3d 55 3f e6 3d 27 87 a7 3d 55 ac a4 3d
       0.1126002 0.112425484 0.08180075 0.08040682
000040 18 a2 0c 3e 6d 38 66 3b 35 f5 61 3e 7c 52 17 3e
       0.13733709 0.0035128847 0.22066195 0.14777559
000050 ad b5 e7 3d 6e 6c 3b 3d 1e 38 f0 be 6e 20 95 be
       0.11313949 0.045757703 -0.46917814 -0.29126304
000060 1c 4e a1 bd 6b 1a 86 3d 0e 59 3e bf 7b cb 0b bf
       -0.07876226 0.065480076 -0.74354637 -0.5460736
000070 dc 95 7a 3e b5 05 1b 3e ac 3c b3 3d f0 9a 33 3e
       0.2447123 0.15138896 0.087518066 0.17539573
000080 a4 23 5b 3e e0 9c 02 bf ae f2 0e 3f 4e aa 1e 3f
       0.21400315 -0.5102062 0.5583905 0.61978614
000090 d4 f5 a0 3d 68 a4 40 3f e8 62 08 3f 4e f3 b9 3d
       0.07859388 0.75250864 0.5327592 0.0907961
0000a0 98 2d c8 3d 73 b4 03 be b8 91 54 3e 37 12 88 be
       0.09774321 -0.12861805 0.20758712 -0.26576397
0000b0 79 03 a2 3d 79 e2 4b 3e d9 ac dd 3c dc cb ab 3d
       0.079108186 0.19910611 0.02705996 0.083884925
0000c0 25 59 8e 3d e4 1f 43 3e 40 ab 6e 3f c0 ab 04 be
       0.06950597 0.19055134 0.93230057 -0.12956142
